sample/lightning_logs/version_2/checkpoints/epoch=9-step=70.ckpt (torch, 308080 bytes, 21 tensors)

conv1.weight f4 [16, 10, 9]
00000000: dad2 11be 13dd d63c 6f7b a4bd 6cfb 143e
00000010: 18e8 7ebd 8aba cc3d ae80 7fbd 2f95 fabd
00000020: 14af cabd 88c5 413d f1f2 3e3d d726 07be
00000030: f878 0fbe 9aec 143e 44f7 bfbd 001e 0c3e
00000040: 651d be3d 6fb1 02bd d402 09bd adb0 be3c
00000050: 1c98 073d 22bc d03d 4bae 063e a386 bfbd
00000060: 7c9b debd d067 58bd 3670 9f3d 864f ccbd
00000070: 0541 703d b45f e83d 791f c8bd 12ef 10be
00000080: d597 09be 912f 1bbc 0688 1abe 8151 c2bd
00000090: 3f54 fcbd 710a 81bd f463 b63d c799 f7bd
000000a0: 626e d23d 0e33 d5bd 54d5 063d 5e3b 6b3d
000000b0: 651f 82bc 83b2 cb3d 5597 803c 7eac 8abd
000000c0: d642 a6bd 6e6f 9c3d b0ab c53d b23a e73d
000000d0: 9d2a 913d 9316 a9bd 2028 a63d 2581 f9bd
000000e0: ed53 033e b386 7abd 6775 a4bd 9b6d 81bd
000000f0: aab7 c83d c131 613d 36f0 50bb 5c83 cbbd
00000100: 7b0f 3dbd 2f45 0abe 39ba 113e 075b ffbc
00000110: 0cba 893d 16d6 9cbd 413f 07be 349f 1a3e
00000120: f6e8 33bd b69c aa3d 231d d4bd baae 453d
00000130: 9856 003e 15c6 7e3d b703 19be 9e90 d53d
00000140: 1af0 e9bd e81c 933d e79e ffbd 115c 183e
00000150: 405e 0fbe ca8a e4bc e844 c8bd 8e29 f4bd
00000160: 2d6b 223d 78c5 873d 65f0 563d 86b9 ad3d
00000170: d420 f03d 45f5 033e 1c32 bbbd d371 98bd
00000180: d546 cebd 7f93 0d3e ab90 7c3d 6155 15be
00000190: 71b9 20bc 724e 88bd 29cf efbd 73cf e53d
000001a0: f90f e6bc 8b90 b13d 07a4 093d 866b bf3c
000001b0: c77d e63d b2da 8e3d 32f6 143e 70e9 89bd
000001c0: e58b 033e 0728 c23d ea0f b03d 6841 013e
000001d0: ec1f 053e ebe8 5c3d 6d33 683c 69e2 df3d
000001e0: e3d4 f6bd d772 09bd e8c3 acbd 9e83 96bd
000001f0: 2f13 e0bd 96f9 053e 6741 0dbd 6d4a 093d
00000200: a784 983d ef54 df3d a163 9dbd d2bc d6bd
00000210: 001a 143e 5372 353d f7b4 d6bd 0c6f 68bd
00000220: 5f80 d2bd 2ff3 46bd 5412 8abd 7681 dd3d
00000230: 4b5d e6bd 421c dabd c20c 05be 73b4 d2bc
00000240: 82f4 c9bd 7042 4e3d a3d0 86bd 8db8 f5bc
00000250: 7363 ed3d 904e 80bb be0d 7ebd 769c d5bd
00000260: 905d f6bd 5c95 023e 1258 a13d 8c1c 813d
00000270: 55aa 0bbe 9ebf ccbd 8e3e 04be 3c21 0cbe
00000280: 5041 453d 6bf0 babd 0ed4 a33d e609 653d
00000290: 6612 0bbe 0e19 0bbe ec30 063e df23 08be
000002a0: 457f 09be bb79 f63d 4e4d 12be acd3 71bd
000002b0: 8cf8 ff3d 7334 15be 44db fa3d f500 35bd
000002c0: b70b d03d d53e 093e d69b efbd 0d39 8dbc
000002d0: 9ce6 9a3d 030c f8bd defb ffbd e713 bbbd
000002e0: 0812 c53b c1d7 cdbd 8897 d83d 4702 7b3d
000002f0: 1891 be3c d36c 8bbd 10d7 babd 600c 883d
00000300: f87f 06be 976c 15be fdb3 9f3d d8f5 a13d
00000310: 68e2 0fbe 12d7 27bd 29b3 9a3d c8c6 f03d
00000320: 8b32 743d 1e72 b43d 4a4b 58bd b3c8 123e
00000330: 8757 c5bd ba5a 0a3e 5455 07be d49a a2bd
00000340: 8c39 713d e304 f7bd a96d 03be ab3f c23d
00000350: 4f4a ca3d 3004 dc3d a7ba c33d 510f 523d
00000360: 04f2 f2bc ddff f63d 86b9 23bb 1ffc e7bc
00000370: dc37 d53d b264 473d 263b 103d 3d06 083e
00000380: a4ce 583d 9486 173e c16d 0abe d4c9 00bd
00000390: 6754 d93c c01b e8bd e7a8 e93d 91d4 f93c
000003a0: 3d5c 273d 3d79 e73c 6614 683d 5ed9 cdbd
000003b0: 48bb 6cbd 840c 9f3d 0c4b 9dbb 1f05 cbbd
000003c0: 656c 503d 7485 113e c73e 133d 41fc e63d
000003d0: 23c7 063e d546 863c 9512 d43d 3429 c7bd
000003e0: ac54 dc3d 56b6 e4bd 84f5 0b3e 3fce 98bb
000003f0: d2d9 e83d 5edf e93d 533a cc3d d09c d93a
-0.1424059 0.026228463 -0.080313556 0.14549035 -0.06223306 0.09996517 -0.062378578 -0.12235486
-0.09896675 0.04730752 0.046618406 -0.1319841 -0.1401099 0.14543381 -0.09373334 0.13683319
0.0928295 -0.031907495 -0.033449963 0.023277605 0.033104047 0.101921335 0.13152425 -0.09351852
-0.108695 -0.05283338 0.077850744 -0.099761054 0.058655757 0.11346379 -0.09771628 -0.14153698
-0.13436826 -0.00947179 -0.15090951 -0.09488202 -0.12320756 -0.0630082 0.08905783 -0.120898776
0.1027496 -0.104101285 0.03291829 0.057429664 -0.01588411 0.09946158 0.01569716 -0.067711815
-0.08118217 0.07638441 0.096518874 0.11290492 0.07088206 -0.08256259 0.08113122 -0.121828355
0.12824984 -0.061163615 -0.08030205 -0.06319734 0.09800656 0.05497909 -0.0031881458 -0.09937164
-0.04615734 -0.13502954 0.14231195 -0.031171335 0.06724939 -0.07658021 -0.13207723 0.15099794
-0.04392334 0.083306715 -0.1035712 0.048262335 0.12533033 0.062200624 -0.14942823 0.10427974
-0.11422749 0.07183248 -0.1248148 0.1487887 -0.14000797 -0.027898211 -0.09778768 -0.119219884
0.039652992 0.06629461 0.05247535 0.084826514 0.117250115 0.12886532 -0.09140417 -0.07443585
-0.10072104 0.13825797 0.061661404 -0.1458335 -0.009809838 -0.06655587 -0.117094345 0.112212084
-0.028083788 0.086701475 0.033603694 0.0233667 0.11254459 0.069753066 0.14547041 -0.06733978
0.12846334 0.09480291 0.08596785 0.12622607 0.13000458 0.053933065 0.014172417 0.10931856
-0.12052324 -0.033556785 -0.08435804 -0.07349323 -0.10941159 0.1308349 -0.0344862 0.033518244
0.074471764 0.10904872 -0.07685018 -0.10485233 0.14463043 0.04429848 -0.10483735 -0.056746528
-0.10278391 -0.04857176 -0.06741777 0.10815708 -0.11248263 -0.10649921 -0.12993148 -0.02572081
-0.09861089 0.05035633 -0.06582763 -0.029995227 0.11591234 -0.0039156154 -0.062024824 -0.10430233
-0.120295644 0.12752289 0.07878126 0.06304273 -0.13639195 -0.099974856 -0.12914488 -0.13684553
0.04815799 -0.09127887 0.079994306 0.055917643 -0.13581237 -0.13583776 0.131046 -0.13294934
-0.13427456 0.12034937 -0.14287302 -0.059039757 0.124985784 -0.14570789 0.12248853 -0.044190366
0.101584844 0.13402875 -0.11699645 -0.017239118 0.075635165 -0.12111666 -0.12499212 -0.091346554
0.0060141124 -0.100509174 0.10575777 0.06128147 0.023262545 -0.06807866 -0.09123051 0.06642985
-0.13134754 -0.14592205 0.07798002 0.07908219 -0.14051211 -0.04097659 0.07553703 0.117566645
0.059618514 0.088108286 -0.052806176 0.14334373 -0.09635835 0.13511172 -0.13216144 -0.07939687
0.05889277 -0.12061479 -0.12834801 0.094848 0.098774545 0.10742986 0.095570855 0.051284138
-0.029656418 0.12060521 -0.0024982407 -0.028318463 0.10411045 0.048680015 0.03521266 0.1328363
0.052931443 0.14797431 -0.1351843 -0.03144248 0.026529504 -0.11333418 0.11409169 0.030496867
0.04085945 0.028256053 0.05666008 -0.10051225 -0.057795793 0.07766059 -0.004800206 -0.09913086
0.050884623 0.14211065 0.03594854 0.11278582 0.13161902 0.016391197 0.10355107 -0.09724656
0.107583374 -0.1116759 0.13667876 -0.0046632583 0.11369671 0.11419557 0.09972062 0.001660252

conv1.bias f4 [16]
00000000: 41cf 4c3d dee0 fa3d 2417 9c3d 0d95 ed3c
00000010: 653f cf3c 0a0e af3d 04d4 a6bc f5e3 99bc
00000020: 0c2a b43d bf5e 0f3e af3d f63c f2fd 9e3d
00000030: 757e c9bb 25b3 7e3d 512f 8a3d 1a51 c73d
0.05000234 0.12249921 0.07621601 0.029001737 0.025298784 0.085475996 -0.020364769 -0.018785456
0.08797082 0.14000987 0.03005871 0.0776328 -0.006149108 0.062182564 0.06747306 0.09732266

conv2.weight f4 [32, 16, 9]
00000000: a66d 653d 5f1b a93d 09c4 ed3c 2636 b33d
00000010: 1d3f 12bc b47f 833d d307 c93d df4b 973d
00000020: 89e5 77bc 2b61 e9bb a994 de3d 8913 8a3d
00000030: 27f7 e03d 7173 bf3d 4385 fa3c eb7a aa3c
00000040: cc6c 573d 9511 ff3c e096 f0ba 0b1a b93d
00000050: fab4 68bc efa6 343d fb97 fc3d 59b6 c33c
00000060: 1133 913c ec57 233d 9998 b03d 8f25 903d
00000070: eafd eebb 8609 c23c 489e f63c 47ab 8a3d
00000080: 4631 a63d 579a e43c 06de 2d3c 732c 263d
00000090: 767f 023e 8403 f23d 9e70 cfbb 75b5 863d
000000a0: eedf c93d 279c 3f3d 8aa5 e73a 3a4c a33d
000000b0: a4cd 633c 9198 cd3d 106b bf3a d7c8 f33d
000000c0: f621 0abd e0db d83b fc0c 7c3d 8bf6 053d
000000d0: 0876 c63d 1989 f0ba 4e42 b03b 994e f43d
000000e0: 0acd 933d 845f 8d3c f538 a93d 2b22 45bc
000000f0: 5df7 3ebb f25f c5bb fa7e 093d b2ca 82bc
00000100: 4e9c 843d 93f6 e73d a544 03bc 03e6 973d
00000110: 8e1b da3d b15d 1d3b a572 a63d caf7 883d
00000120: 520e 9a3c 33ae c1bc 11a7 b53d eda6 c2bc
00000130: fa06 753c 5584 1b3d 27ef d13d 59aa 043d
00000140: c10b 753d ac13 1e3c d456 7abc a9d3 cfbb
00000150: e43c c93d 361c 16bc 96cc f23d ec52 693d
00000160: d277 103d 553a 713d 4cfc 133d 0e83 e73d
00000170: 9966 13bd 2db3 89ba fbf7 2e3d b322 64bb
00000180: f222 61bc 72d1 243d 8f3b d13c c6f1 f13b
00000190: b2f1 8b3d 0bbc 413d e91b d33d eadc bb3d
000001a0: 2995 193c b4c7 ac3d aa4d 013e 1f09 053d
000001b0: 9786 003e 5a13 033e ea67 633d cc68 823d
000001c0: 5859 babc f858 e23c b7f4 ce3d 47c3 5f3d
000001d0: ca42 9d3c b3f9 363d f316 073d b537 e43d
000001e0: 9e62 d43d 5af0 783d 06f2 c63d e50e 5b3d
000001f0: 059b ae3c 28e5 403a 3b70 e23d 519e d43d
00000200: 440e f43a 2ae6 f03d 41c5 9b3d 9418 9c3d
00000210: 7d38 c63d 4ff2 f23d a62e b93d 7456 033e
00000220: 090d 503d ea27 493d 4a8b ab3d ca1c 493d
00000230: 973d 02bd 7a77 0c3d 4857 e2bc a7e6 733d
00000240: b261 e0bc 73d5 f33d ff4c cc3d 636c 07bd
00000250: 6784 ecbb 54dc 613a 021d 153d bace 0d3c
00000260: 9d18 053e 498c 193d 2f26 c03d c827 cc3c
00000270: 2238 803c 6bfe 1b3d 023e db3d 1b86 bb3d
00000280: a4d2 083d ca5c ca3d 9b77 cfbc 3487 acbc
00000290: aead 6a3d 40e5 be3d 4802 223d 0e1c b8bc
000002a0: 69b6 173d b3b3 cd3d 4541 823d 2a32 db3d
000002b0: 0136 b23d 459e c3bc 5c04 a33d 6880 e03d
000002c0: d39c 6a3d 80ed bc3d 4113 7d3b cd92 92bc
000002d0: 1efa 30bc d2fb f33d 87e8 da3c 14d6 033e
000002e0: e263 e8bb 0bed cfbb 02a0 56bb 1016 ca3d
000002f0: 0e3f 47bc 4457 9c3d 9496 b1bc a73b 6fba
00000300: bbae 413d 14ee b73d acf6 09bd 6029 e2bc
00000310: 609b 043e 105a 863c 061f e03d 7d22 6a3d
00000320: 8375 b43b 6cd2 fc3d 78c7 fd3d 627e 803c
00000330: 568a bc3b b45f 773d 2607 883d 64e5 4fbc
00000340: efc9 a33c 73e3 fe3d 2dd8 b03d ce79 54bc
00000350: 5873 b0bc 068a b8bc 0ce5 4b3d 2ce8 93bc
00000360: d969 ef3d 3f99 aa3d a698 8dbc 14ff 003e
00000370: 11b6 e93d 9bfa 033e 2f8d ca3d a303 ea3b
00000380: ac3b c53d 6b14 a73d 7eb5 c2bc ebd5 613b
00000390: 5628 f4bc eeee 5e3b 9e0a b63d 6433 843d
000003a0: 3862 ff3b 5510 b83d a4fc 753d d7ed 2e3d
000003b0: 2723 ee3d 0f09 2e3d fecb eebc cfa1 123c
000003c0: 90e1 7f3d c3b2 b53d 8dc3 7c3d 42a8 09bd
000003d0: cc4a 233c a715 34bc 1679 813d 6a0c 00bd
000003e0: 6302 ae3d 4e3a ec3d 45bf dd3d f324 89bc
000003f0: 4284 873d b005 f1bb 4cd6 9a3d 77fe d93c
0.056012772 0.08257174 0.02902414 0.08750562 -0.00892618 0.06420842 0.098159455 0.07387518
-0.015130409 -0.007122179 0.108681984 0.06742007 0.109846406 0.093481906 0.030581122 0.020810565
0.05259399 0.031136313 -0.0018355511 0.090381704 -0.014203304 0.044104513 0.123336755 0.023890661
0.017724546 0.03987877 0.08622856 0.07038414 -0.0072934525 0.023686182 0.030104771 0.0677095
0.08114867 0.027905626 0.010612017 0.040569734 0.12743935 0.11817077 -0.0063305637 0.06577579
0.09857164 0.046779778 0.0017673236 0.079735234 0.013904009 0.10038865 0.0014604051 0.119035415
-0.033723794 0.006618008 0.06153582 0.032705825 0.096904814 -0.0018351405 0.005378998 0.11929054
0.072168425 0.01725746 0.08262817 -0.012032072 -0.002913914 -0.0060234005 0.03356836 -0.015965793
0.06475125 0.11326327 -0.008011972 0.07416918 0.10649787 0.0024012143 0.081273355 0.06687887
0.018805657 -0.023642635 0.08869756 -0.023761237 0.014955277 0.037968 0.10250693 0.03238902
0.059825663 0.009648245 -0.0152794905 -0.0063423705 0.09826067 -0.009161999 0.11855428 0.056963846
0.03527052 0.05889352 0.03612928 0.113042936 -0.035986517 -0.0010505669 0.04271696 -0.0034810721
-0.013741242 0.040238805 0.025541095 0.007383558 0.06833209 0.047298472 0.10308058 0.091729954
0.009373941 0.08436528 0.12627283 0.0324794 0.12551342 0.12800351 0.055519022 0.06367645
-0.02274768 0.027630314 0.101052694 0.05462959 0.019196887 0.044671725 0.03298087 0.11143438
0.10370372 0.060776092 0.09714131 0.053481 0.021314153 0.00073583657 0.110565625 0.10381759
0.0018619974 0.1176265 0.076059826 0.076218754 0.09678743 0.11862623 0.090421006 0.12825948
0.05079368 0.04911033 0.08376177 0.04909972 -0.031797018 0.03429363 -0.02762951 0.05954614
-0.027390335 0.119059466 0.09975623 -0.03306235 -0.007217932 0.00086159003 0.036404617 0.0086552445
0.1299767 0.037487302 0.09382283 0.024921313 0.015651766 0.03808443 0.107051864 0.09156438
0.033404008 0.09880979 -0.025325587 -0.021060564 0.05729454 0.0932107 0.039552957 -0.022474315
0.037039194 0.100440405 0.063601054 0.107029274 0.08701707 -0.02387918 0.07959816 0.109619915
0.057278465 0.09224987 0.0038616213 -0.017892266 -0.01080182 0.11913265 0.026722206 0.12874633
-0.007091985 -0.0063453964 -0.003274918 0.09867489 -0.0121610295 0.07633832 -0.021678247 -0.00091260154
0.047285777 0.08980957 -0.03368251 -0.02760762 0.12949896 0.016400367 0.10943417 0.057161797
0.0055071726 0.12344822 0.12391561 0.015685264 0.0057537956 0.060394004 0.066419885 -0.012688968
0.01999375 0.12445726 0.08634982 -0.012968494 -0.021539375 -0.022526752 0.049778983 -0.018055044
0.11690111 0.083300106 -0.017284703 0.12597305 0.114116795 0.12888567 0.0989021 0.007141547
0.09630522 0.08158191 -0.023768183 0.003445978 -0.02980439 0.0034016925 0.08888744 0.064551145
0.007793691 0.0898749 0.06005539 0.04270729 0.116277985 0.042489108 -0.029150005 0.008949711
0.062470973 0.08871987 0.06170993 -0.03360773 0.009966563 -0.01099149 0.063219234 -0.03126184
0.08496549 0.11534558 0.108274974 -0.016741252 0.06617023 -0.0073554143 0.07560405 0.026610596

conv2.bias f4 [32]
00000000: 12aa cd3b 7564 b13b 06a6 ff3d 06d1 f4bc
00000010: af98 84bc 7904 a83d 60a6 cd3d e7fe 44bc
00000020: 218e 2e3d 8c6e ba3d ba89 393d 656d 863d
00000030: 0fa8 fa3d 25f6 edbc 6dff b03b 4304 be3d
00000040: b220 183d b724 043e 753f 343d 3444 8b3d
00000050: a97f 493d f982 c73d 5218 8bbb 7499 a53d
00000060: 8ca4 623d 8627 db3d cb20 d53b 3577 a23d
00000070: 7ab6 193a 4f86 e6bc ef72 0fbc 3ff3 b33d
0.0062763775 0.0054135867 0.12482838 -0.029884826 -0.016186086 0.08203978 0.10041499 -0.012023664
0.042616013 0.091031164 0.045297362 0.06563834 0.12239086 -0.029048035 0.005401543 0.092781566
0.037140556 0.1290463 0.04400583 0.06800118 0.04919401 0.09741778 -0.0042448426 0.080859095
0.055332705 0.10700898 0.0065041534 0.07932893 0.0005863678 -0.028140215 -0.00875543 0.0878663

conv3.weight f4 [64, 32, 9]
00000000: b73d be3d 88ec 973d eaab 0c3d 4d2b 8e3c
00000010: db0d be3d bc7a b63c 8488 0fbc 4c50 443d
00000020: be11 cf3d 3aec 853d e19f 0e3c d381 053c
00000030: f402 d43d ca21 903d e846 173d 2d6d b73d
00000040: cab5 1e3c 3790 213d c531 373d 8523 003c
00000050: 3efb 803d b593 b1bb 4707 783d 6bfe c63d
00000060: ef76 29bc 9411 263c 3b98 c43d 7068 433d
00000070: fe2a c93d e393 b53d d66a 363d e4ee 45bb
00000080: d39b 293c c67a 5c3d 2ee6 4d3d 1b7c 9a3d
00000090: 4507 663d d29b 313b 57a1 6a3b 9d87 893d
000000a0: 8f85 fe3c 8d6c 8e3d 6cdb bd3d 2dc7 af3d
000000b0: cb25 743d cf83 273c b386 8b3d 5ae9 823d
000000c0: 2d1b d23d 84da ee3c 5524 553d 516a 243d
000000d0: 3c51 973d b43e 913b 9252 993c cb9f 903d
000000e0: a723 553c e619 26bc e8bf b53d f0e5 7a3d
000000f0: 9b57 c43d 27e8 a83c d4f3 f63c e4d2 3e3d
00000100: 8687 c13d 8975 be3d ed77 d43d 695b 883c
00000110: a4ce aa3d b2ff 7d3d 6633 2a3d 5981 2ebc
00000120: 6f8f 3e3b 4c26 a93b 104e 04bc 5615 4d3d
00000130: 212d cbbb 2b38 d73d 314e 18bc 7c19 943d
00000140: 2628 743d dee3 963d b740 323d ad50 983d
00000150: 3b54 883c e098 063d c88f 523d 9f21 9b3d
00000160: 1aab 463c 2cd7 8dbb 1a64 b33d 6cee a33d
00000170: b9e0 b93c ef53 833d 2acb 9e3d cff0 d63d
00000180: c2e9 b03d cca4 a63d 34a2 2b3d abf6 bb3d
00000190: 83f5 f33c ac8e a03d 6ff6 a63d d50c 0a3d
000001a0: fe30 6e3d deb9 dd3c 8265 a23d 0b35 d43d
000001b0: 7285 333c c354 4a3c 126a 793d 8962 b73c
000001c0: 35e4 d33d 4053 893d e9ac 0e3d e9db 3b3d
000001d0: f490 8d3d bddc 593d 0ccc c43d fde4 013d
000001e0: 447c c13d 1bc7 06bc dc4e 2ebc 3323 d73d
000001f0: 9742 d138 317c 343d 740a 1e3d b8d9 a63d
00000200: 33a4 cd3c 7423 fa3b 265e d03d 01d3 963d
00000210: 9c37 863d 4276 b63d 4833 1d3d ffb8 a93d
00000220: 01d7 c03d ff91 0dbc bfd5 813b c0cd 153d
00000230: cd1f b93a 5165 67bb 3ec4 ea3c eac2 8e3d
00000240: db05 af3d abf6 bc3d 2aa4 d13d e1e0 9d3d
00000250: d4f0 a83d b59c a43d d85a 5a3d 57b0 d53d
00000260: 9261 c53c b984 513d db31 a33d 1861 01bc
00000270: a9b2 4e3d 36d7 b93d f44b 933c ae32 fe3b
00000280: b496 a73d bfb9 2d3d 9111 913d a03d 1e3b
00000290: 0859 d73d 257e 23bc ec54 0b3d 5315 3e3d
000002a0: 2a6f b73d 85de 4a3d 4dc1 bb3c 6043 2e3d
000002b0: b0d4 453c 2143 503d a61f 5d3d 3dcb 153d
000002c0: b644 9a3d 7360 553d 7119 9e3d f615 9e3d
000002d0: fbbf bf3c b8dc 083c 2a85 5c3d d151 e1ba
000002e0: 5d39 d53d 7586 733d da2d 1a3d 56ba b1b6
000002f0: d6cf a73d 9a4c 363d 64fe ac3d c26d 6d3d
00000300: 24cc cd3d 927c 2b3b 145e cd3d 3a07 d03d
00000310: 47cb 563d e45f 0d3d 1d44 02bc 9f6f 9c3d
00000320: d8ff 323d de1c 133d 5640 693d 4225 713c
00000330: fd12 653c 8d68 0b3d 8577 d73d 0681 2b3d
00000340: e523 753d 9995 c33d 7fc8 623d 57be 2b3d
00000350: e27a cf3c 4c9c ae3d bad7 a53d 1507 bb3d
00000360: fe99 283c be1f 76ba 412c 483d 88d2 8a3d
00000370: b91f 693d 1a03 473d 0024 463b 6363 0ebc
00000380: 9822 b83d b042 a03d 9ca5 313d 4576 8e3d
00000390: fc7a 8d3d 7307 a93d 0caa b43a f6a0 fb3b
000003a0: 301c 303d fa19 373d 8c81 8c3d e02c 993d
000003b0: 31c8 bd3c d37e a13c ade2 c83d 5c46 b5ba
000003c0: c72e e63c 7137 b73d ffbe 543d 8159 043d
000003d0: 67ca d23d c960 903d f275 d13c 9bef 2b3d
000003e0: 142b 7d3d 2284 98bb 2f65 c53c 1f2a 943c
000003f0: 5a1d a83d 834b 62bb 2b81 b23b 4ed6 e13c
0.09289115 0.07418162 0.034343638 0.017354632 0.092799865 0.022275321 -0.008760575 0.04792814
0.10110806 0.06539197 0.00870511 0.008148628 0.10352126 0.07037695 0.036932856 0.089563705
0.009686897 0.039444175 0.0447252 0.0078209685 0.06297921 -0.0054192194 0.060553815 0.09716495
-0.010343297 0.010136027 0.09599348 0.04770702 0.09822653 0.08866098 0.04453548 -0.0030202204
0.010352093 0.053828023 0.050268345 0.075432025 0.056159277 0.0027100933 0.0035801732 0.06715319
0.031069545 0.06954298 0.09270367 0.08582912 0.059606355 0.010224297 0.06812801 0.063921645
0.102590896 0.02915693 0.052036602 0.040140454 0.07388541 0.0044325236 0.01871613 0.07061728
0.013008988 -0.010138011 0.08874494 0.06125444 0.09587022 0.020618511 0.030145563 0.04658784
0.09449677 0.09299762 0.103744365 0.01664515 0.08340195 0.06201143 0.041552924 -0.010650956
0.0029077192 0.005162036 -0.008075252 0.050069176 -0.006200448 0.1050876 -0.009295986 0.07231423
0.0596086 0.07367681 0.043518748 0.07437263 0.016641727 0.032860637 0.05140665 0.07574772
0.012125755 -0.004328629 0.08759327 0.0800446 0.022690164 0.064124934 0.07753594 0.10495149
0.08638336 0.08136901 0.041902736 0.091779076 0.029780155 0.078397125 0.08152472 0.033703644
0.05815219 0.027066167 0.07929517 0.1036168 0.010957109 0.01234931 0.060892172 0.022385852
0.103462614 0.06705332 0.03483287 0.04586402 0.06912413 0.053189028 0.09609231 0.03171252
0.0944753 -0.008226181 -0.010638919 0.105047606 9.9783e-05 0.04406375 0.038584188 0.08146995
0.02510271 0.007633621 0.101742074 0.073644646 0.065535754 0.08909275 0.038378984 0.08287238
0.09416009 -0.008640765 0.003962248 0.03657317 0.0014123857 -0.0035308192 0.028658029 0.06970771
0.08546039 0.09226736 0.1023639 0.07708908 0.08249059 0.08037702 0.05330929 0.10434025
0.024094377 0.051151965 0.079684936 -0.007896684 0.050463352 0.09074251 0.017980553 0.0077575063
0.08183041 0.04241347 0.07083429 0.0024145618 0.10515028 -0.009978806 0.034016535 0.046407055
0.0895675 0.049528617 0.022919321 0.042544723 0.012074634 0.05084527 0.05398526 0.036570776
0.07532637 0.052093934 0.07719696 0.077190325 0.023406973 0.008353405 0.053837933 -0.0017190521
0.10411332 0.0594544 0.037641384 -5.2967034e-06 0.081939384 0.044506647 0.08446959 0.057966
0.10048702 0.002616678 0.100277096 0.10157628 0.052439954 0.034515277 -0.00795081 0.076384775
0.043701023 0.0359162 0.05694612 0.014718356 0.013981578 0.034035254 0.105208434 0.041871093
0.059848685 0.09550018 0.05536699 0.04192957 0.02532715 0.08525905 0.08097787 0.0913221
0.010290621 -0.0009388885 0.04887033 0.06778437 0.05691502 0.048586942 0.003023386 -0.008690688
0.08990973 0.0782522 0.043370828 0.06956152 0.06908223 0.08253374 0.0013783588 0.0076791
0.04299563 0.044702508 0.068606466 0.07479262 0.023166748 0.019713795 0.0980886 -0.0013830173
0.028098477 0.089461215 0.05193996 0.03231192 0.102925114 0.0704971 0.025568936 0.041976552
0.06180866 -0.0046544233 0.0240961 0.018086491 0.08208723 -0.0034529872 0.005447527 0.027568009

conv3.bias f4 [64]
00000000: 469b 1b3d 8912 60bd fa18 6f3d 9e90 3f3d
00000010: 1c38 873d f89e 18bd bb89 903d 355d 663c
00000020: 63db 47bd a818 bf3b 476d 693c 10da 81bc
00000030: 1f48 833c e4a6 e0bc 8212 343d bec4 bb3d
00000040: e233 b6bb 777f f73a 495f 943d 58e3 a63c
00000050: ea5b 813d 558f 773c 93a8 3abd 3972 943d
00000060: 407f 0a3d 4e2a 2b3d 8c2a a53a 9a94 ab3a
00000070: d7ae abbc 201c 56bd 45c5 9d3c 54c7 a83c
00000080: 5654 ab3c dc5b 1f3d 067e 49bd a5b9 80bc
00000090: ba8b 053d f938 46bc 0981 b4bc a821 2e3d
000000a0: f7be 053d 91e9 26bc c1fb 95bb 55cd e9bc
000000b0: 8771 b03d 9819 d5bc 6856 743c ef8a 6b3c
000000c0: bd4b 963d 822b b63a 7f55 5ebd 5d37 143d
000000d0: 21dd 0d3d 9fe2 853d 254e 603b 13a3 b73c
000000e0: b181 f63c d7d3 36bc 9abf 61bd 8f5a 7bbc
000000f0: 89f2 d03c 7aa5 8b3c 57ca b73d 73e0 943d
0.037989877 -0.054705177 0.05837343 0.046768777 0.06602499 -0.03726098 0.0705752 0.014060308
-0.048793208 0.0058317967 0.014247245 -0.01585105 0.016025601 -0.02742333 0.043962963 0.09168385
-0.005560384 0.0018882592 0.07244737 0.020372078 0.06316359 0.015109857 -0.04557092 0.07248349
0.03381276 0.04178839 0.0012601181 0.0013090551 -0.020957394 -0.052272916 0.019259105 0.02060286
0.020914238 0.038905963 -0.04919245 -0.015713522 0.032603957 -0.012098544 -0.022034185 0.042512566
0.03265282 -0.0101875225 -0.0045771305 -0.028540293 0.086154036 -0.02601318 0.014913179 0.014376386
0.07338665 0.0013898464 -0.054280754 0.03618561 0.034634713 0.06537365 0.0034226265 0.022416627
0.030091139 -0.011158905 -0.055114366 -0.015341415 0.025506275 0.017046679 0.0897414 0.07269373

fc1.weight f4 [1, 64]
00000000: e3d4 203e a26d c8bd d81d 093e 0933 98bd
00000010: a95c 983d 50b4 f6bc d84c 3b3d 7db1 d5bc
00000020: e7e3 c0bd 9120 033e 07be 57bd 24f9 5a3d
00000030: be6a aabc 2c97 cfbd 0d92 8e3d a46a 133e
00000040: b2be 913d 774b 0a3e a89a b43d 8e42 a1bd
00000050: c2f1 f53d 0284 4abd ceec 75bd 4f33 1a3e
00000060: fb1a 623d a239 ed3d c716 f43d 80c5 b23d
00000070: 379e 49bd d615 f7bc b743 d3bd c0bc 03bb
00000080: 838b 193e 1889 c13d 1e4e 06bd aa47 f93d
00000090: 9166 29bd 0b16 493b 0fbf 18bd 0270 bc3d
000000a0: ef7d 083e 6270 ca3d 0fe2 ba3d bbb5 43bd
000000b0: 83e2 1d3e 89ce 9ebc 3145 aabd 761f be3d
000000c0: d5b0 ab3d 815c dc3d f99a 37bc 072f d9bc
000000d0: 2452 913d 7291 b23d 8168 9dbd 1a56 fd3d
000000e0: ffb5 f33d 1588 393d 6194 82bd 4871 7fbd
000000f0: 226a 713d 21f8 d53d 8353 c13d b92b da3d
0.1570621 -0.09786536 0.1339029 -0.07431609 0.074395485 -0.030115277 0.04572758 -0.02608561
-0.09418469 0.12805392 -0.05267146 0.053460255 -0.020802852 -0.101362556 0.06961451 0.14396149
0.0711645 0.1350535 0.08818561 -0.078740224 0.12009002 -0.0494423 -0.060040288 0.15058635
0.05520151 0.11583258 0.11918407 0.087290764 -0.04922315 -0.03016178 -0.1031565 -0.0020101517
0.14994626 0.09449977 -0.032789342 0.12171872 -0.04135758 0.0030683305 -0.037291583 0.09201051
0.1332929 0.098847166 0.091251485 -0.047780734 0.15418439 -0.019385593 -0.083139785 0.092833444
0.083833374 0.10759831 -0.011206382 -0.026511682 0.07095745 0.08719148 -0.07685948 0.12369938
0.118999474 0.045295794 -0.06375957 -0.062363893 0.058939107 0.104477175 0.09439757 0.10652871

exp_avg f4 [16, 10, 9]
00000000: fd5d 5f44 8fa9 c442 cc4a 2b44 705f 54c4
00000010: 34ad d643 d041 54c4 dd56 1444 0a78 4d44
00000020: 7dbf a543 4ab4 77c0 f3f1 aec2 c2c5 7c44
00000030: d651 a944 e8fa 5fc4 8b85 2a44 31ca 26c4
00000040: 9b65 06c4 85e1 ad43 5376 6042 5071 27c3
00000050: f40e fdc2 339c 28c4 a47e 88c4 f581 1844
00000060: e674 0544 43d4 ec42 ce6d 13c4 84f1 2844
00000070: 9e6f 60c3 685e 2cc4 63d0 4a44 66e5 a144
00000080: 6538 6c44 82f8 f241 6069 4044 d45e 0944
00000090: 2268 4944 25f8 8f43 2ab9 ecc3 5a47 5844
000000a0: cc2f 3fc4 b3eb 2a44 6f64 8dc2 99e0 4cc3
000000b0: 42d9 b441 978d 32c4 013a e7c3 f83d 9b43
000000c0: 8644 8f43 a844 35c4 169e 51c4 137f 7ec4
000000d0: d2d3 a6c3 b261 4b43 456d f1c3 8828 4c44
000000e0: 4d0d 53c4 e772 ea43 28c9 4644 7970 0f44
000000f0: 3e35 32c4 1dd8 f0c3 bc73 1dc3 5b2b 5043
00000100: 81fa 6643 34f0 4344 c18f 96c4 0a73 e342
00000110: e78a 01c4 4290 c843 e7c6 5544 58bf 4ec4
00000120: a7f9 b242 e874 f2c3 bce0 4f44 2d5a 8ec3
00000130: 0cc9 87c4 b4b6 11c3 9dbe 5244 f0e5 57c4
00000140: 7368 1a44 1999 b4c3 f64a 0f44 44a2 60c4
00000150: 5aca 6144 fd8d 8643 8ed2 3944 921a 5b44
00000160: 8e9b afc3 f4ee 62c3 c510 0d43 afaf b2c3
00000170: 9256 fec3 cf13 66c4 3987 5b44 0898 f443
00000180: 9c97 de43 28b0 69c4 af6a 26c4 efd9 6944
00000190: fa67 a643 39ee 2b44 ea02 9344 f36f 3bc4
000001a0: 0351 b743 f776 d3c3 454c 99c2 23e8 f642
000001b0: 01a6 4ec4 8558 13c4 9f70 96c4 e13d 9d43
000001c0: 829b 96c4 8ee5 65c4 377d 58c4 533a 74c4
000001d0: bdfb 60c4 84fd 1ec0 bd00 13c3 1db7 1fc4
000001e0: f55e 5444 9de0 a843 f18c 4844 c318 f543
000001f0: b956 0644 8382 46c4 4c82 8a43 de87 e2c3
00000200: ee4a f1c3 d8fe 62c4 6ccb ed43 33d1 3144
00000210: 0c68 71c4 7e48 19c3 e36a fe43 5828 0c43
00000220: b0e9 e843 f6a8 d142 8347 4142 43f1 6ac4
00000230: e801 2544 679a c743 c29c 2744 5de6 7cc0
00000240: 7626 c743 b94e 41c3 478a df43 4311 4f43
00000250: b117 82c4 1d87 0ac3 a2da 6743 20ec 1144
00000260: 2c2d 2244 2b46 2ec4 c2f6 2bc4 b7a5 ddc3
00000270: 8d59 6444 285e 9343 e4fe 4444 8650 6544
00000280: 71e9 d1c3 5934 c143 1f9c 33c3 5fca 87c3
00000290: 8480 6844 2bae 8e44 b8d6 8ec4 4a51 6744
000002a0: 85a8 6344 4be9 4ec4 4134 2744 4a2f 5f43
000002b0: 229f 04c4 79d7 7644 1bd4 3dc4 3cca 3d43
000002c0: fc09 6fc4 ed17 6ac4 7bba 2544 0fdd 6d43
000002d0: 8d6c 8ec3 ea8f 3544 ffc1 5c44 1666 2b44
000002e0: 6562 f342 dc93 2744 3f2b 0cc4 696e 04c4
000002f0: a76a 01c3 29dc 0344 4a76 f743 ea51 49c3
00000300: b0f8 8744 6d07 8d44 cd01 06c3 68ca 8ec3
00000310: 5a19 6c44 9cb7 ab43 88db d5c3 8210 24c4
00000320: 4fac 12c4 9f72 23c4 965f 6043 1ec8 59c4
00000330: 3398 9a43 65b7 78c4 84f6 d943 59bc eb43
00000340: 33ac 0ac3 920e 5a44 02ae 6844 3b1a 1fc4
00000350: e100 1cc4 610d 19c4 c10a 0dc4 b164 44c3
00000360: b995 a242 2ca4 13c4 d53e 7442 5608 5043
00000370: 203a 2dc4 42d8 9fc3 f2dd ebc2 0e2e 49c4
00000380: 47a6 7bc3 0fe5 51c4 20c2 0244 de5d 7241
00000390: 702a 9bc3 5185 0744 82a8 6fc4 8180 b9c3
000003a0: 27bf bec3 1062 b3c3 08db 56c3 47aa fd43
000003b0: 1475 d643 206d b6c3 8b89 ec41 c429 1344
000003c0: 8752 aec3 5232 21c4 2c57 abc3 c25d 26c4
000003d0: 08a1 24c4 7791 88c3 6995 59c4 2f08 3844
000003e0: 8248 3ac4 4fd5 ee43 236d 2bc4 a2ac 1ec2
000003f0: 0299 dec3 53c4 0fc4 641a c0c3 7ed6 4f43
893.46857 98.33117 685.1687 -849.4912 429.35315 -849.0283 593.35724 821.8756
331.496 -3.870379 -87.47256 1011.08997 1354.5574 -895.9204 682.0866 -667.15924
-537.5876 347.76187 56.11555 -167.44263 -126.529205 -674.4406 -1091.9575 610.0306
533.82654 118.41457 -589.7157 675.7737 -224.436 -689.4751 811.25604 1295.1687
944.88116 30.371342 769.6465 549.4817 805.6271 287.93863 -473.4466 865.11487
-764.7468 683.6828 -70.69616 -204.87733 22.606083 -714.21234 -462.45316 310.48413
286.53534 -725.07275 -838.4701 -1017.98553 -333.65485 203.38162 -482.85367 816.6333
-844.2078 468.89767 795.14307 573.7574 -712.8319 -481.6884 -157.45209 208.16936
230.97853 783.7532 -1204.4923 113.724686 -518.17035 401.127 855.10785 -826.98975
89.4876 -484.91333 831.5115 -284.7045 -1086.2827 -145.71368 842.97833 -863.5928
617.632 -361.19608 573.17126 -898.5354 903.16174 269.10928 743.2899 876.41516
-351.21527 -226.93341 141.0655 -357.37253 -508.67633 -920.3095 878.11285 489.18774
445.18445 -934.75244 -665.66693 935.4052 332.81232 687.7222 1176.0911 -749.7492
366.6329 -422.9294 -76.648964 123.45339 -826.5938 -589.3831 -1203.5194 314.48343
-1204.8596 -919.5868 -865.9565 -976.9113 -899.9334 -2.4842234 -147.00288 -638.86115
849.4837 337.7548 802.2022 490.19345 537.35504 -794.03925 277.01794 -453.06146
-482.5854 -907.98193 475.58923 711.26874 -965.62573 -153.28317 508.83505 140.1576
465.82568 104.83 48.319836 -939.7697 660.0298 399.20627 670.44934 -3.9515603
398.30048 -193.30751 447.0803 207.06743 -1040.7404 -138.52779 231.85403 583.68945
648.7058 -697.0964 -687.8556 -443.29465 913.39923 294.7356 787.98267 917.2582
-419.82376 386.40897 -179.60985 -271.58102 930.00806 1141.4427 -1142.71 925.27014
910.6331 -827.6452 668.81647 223.18472 -530.48645 987.36676 -759.31415 189.78998
-956.156 -936.37384 662.91376 237.86351 -284.84805 726.24866 883.0312 685.5951
121.69218 670.3103 -560.6757 -529.72516 -129.41661 527.44 494.92413 -201.31998
1087.7715 1128.232 -134.00703 -285.5813 944.3961 343.43445 -427.7151 -656.25793
-586.6923 -653.79095 224.37338 -871.12683 309.18906 -994.86554 435.9259 471.47147
-138.67265 872.22766 930.7189 -636.40985 -624.01373 -612.20905 -564.168 -196.39333
81.29243 -590.5652 61.06136 208.03256 -692.9082 -319.6895 -117.93349 -804.7196
-251.64952 -839.57904 523.0332 15.147917 -310.33154 542.08307 -958.63293 -371.00394
-381.49338 -358.7661 -214.85559 507.3303 428.91467 -364.85254 29.56716 588.6526
-348.64474 -644.78625 -342.68103 -665.46497 -658.5161 -273.13644 -870.33453 736.12787
-745.13293 477.66647 -685.70526 -39.668587 -445.19537 -575.06757 -384.20618 207.83786

exp_avg_sq f4 [16, 10, 9]
00000000: 1dfa 8d46 f30d 4645 fa67 3446 d50b a646
00000010: e8d0 bc45 ea8d 8846 02db 2946 9cae 8046
00000020: e65d d345 96a0 5845 4325 ff44 0f74 c046
00000030: 03b9 1e47 cc26 9546 f206 4646 68ad 5146
00000040: 47b7 1146 0309 8345 d308 fe44 7b6d 4e45
00000050: 6604 6f45 51b5 3046 5dbb d346 6c0b 1646
00000060: b46f 4d46 57c5 a145 703e 0c46 46c3 2f46
00000070: 4d01 1545 9cab 2a46 78ce 7e46 fc68 0d47
00000080: ba36 b246 17db b145 bc75 8246 36ca ee45
00000090: 4f00 6c46 0164 b545 5f6e ec45 878b 8c46
000000a0: b23c 8c46 51a5 4846 d96e 8845 b174 4945
000000b0: 4e74 8745 4177 4f46 e895 cf45 4b6a fc45
000000c0: 175a 9245 dd12 5446 44ae 9a46 e287 b846
000000d0: ae82 1f46 9214 1945 969e e145 8dcb 7b46
000000e0: 836c 8746 9355 0b46 50d0 6446 5ff4 1c46
000000f0: 4c19 4046 7cc8 cb45 3a96 8745 4573 6d45
00000100: b543 3445 74d1 7046 f03f f846 3274 5545
00000110: e115 e845 4ae9 ee45 0279 8a46 5dd0 7e46
00000120: 152c cc44 2551 ac45 d554 7a46 4099 ab45
00000130: a999 ce46 52aa 3945 eb72 9446 43a2 9846
00000140: 0718 0f46 0108 d345 62bf 4546 db7e 9f46
00000150: d1df d146 89f0 d945 d548 8b46 5bbc 9846
00000160: 07cc b345 daac 8c45 25fb d645 f4bd aa45
00000170: ed4b 2646 9401 9a46 4ff6 9146 b3b1 f645
00000180: c9dd ea45 c554 a946 421a 4d46 7143 b746
00000190: ada7 c045 2d7e 8046 025b fb46 ce6c 6a46
000001a0: 849c f945 f94e ce45 063a 5a45 420f 4845
000001b0: 7227 8546 c41e 2546 4dbb 0447 81f0 a045
000001c0: 0331 0447 9ce8 a346 ba2a 8d46 8eff a346
000001d0: e11b 8d46 1879 4645 da16 1745 e479 2e46
000001e0: 9b2e a946 9f27 9945 1d17 7546 09bf fc45
000001f0: 46fa 2c46 6c76 6646 b9c1 9245 5806 fe45
00000200: df70 3146 7656 a746 e3f6 f845 5e76 8046
00000210: 309c bc46 67d0 9345 8143 1b46 1d44 c145
00000220: e971 e745 4c78 b245 c3b4 7e45 ce5f a546
00000230: 3b86 5046 00f8 ae45 b7d5 2a46 cc40 1d45
00000240: 895b cc45 f1e0 0f45 4ef9 e745 3f16 5d45
00000250: b580 c846 dbc1 5845 4ed4 9b45 afa4 4146
00000260: c9d8 6d46 f844 6246 b524 3d46 7aba c045
00000270: 78ec a546 a254 1c46 b549 8a46 ad43 a246
00000280: 0eb7 e245 6e09 cc45 92d0 8545 f647 5445
00000290: 0741 9b46 89d2 f446 6772 f046 bfe8 a146
000002a0: cb4c 9946 3eac 8b46 6ba5 4b46 6a26 9945
000002b0: 79fc 3146 34a7 d046 98f4 8846 7d49 c145
000002c0: 4f98 fe46 c42a b546 f934 6b46 dfdc 5545
000002d0: 2310 2645 a374 3d46 ea84 8546 f1c5 3c46
000002e0: 85bd f944 3d26 1c46 c8bf 0c46 45ec f345
000002f0: 4dc3 c044 f6b0 ea45 2ea3 df45 aa5a 1d45
00000300: 75d4 cc46 32d8 d746 a9da 0c45 2b92 7e45
00000310: b5a1 9946 064a 6445 29dc d145 57f2 1846
00000320: 752d 1546 0474 1946 4a65 2e45 890a 8a46
00000330: 8417 6745 b6f9 ad46 672e c145 3a22 bb45
00000340: 333c dd44 acc6 8446 c5cd 9846 3f54 2f46
00000350: a099 2c46 4608 0146 6d49 0e46 c765 c244
00000360: b79a ee44 d35b 0246 c959 1545 1ac3 4045
00000370: ee7f 5546 1a26 4345 46f5 2245 26ae 7646
00000380: 8fc5 2945 7c25 7246 9bae 2146 caf9 f744
00000390: 8774 8545 d340 1a46 27c4 a746 e972 8f45
000003a0: 26d9 9f45 36ef 8a45 27ad 0f45 729c cd45
000003b0: c3d4 b145 a001 8a45 ee71 d744 c3a4 0446
000003c0: 0f59 5d45 3b29 2146 5cf5 ba45 7745 1746
000003d0: 4f25 4a46 fa00 4345 f1ee 8d46 43aa 4846
000003e0: cb8f 6d46 0a38 cd45 5c75 4646 5851 7244
000003f0: dc80 ac45 c02f ed45 3eb0 8645 1060 4645
18173.057 3168.8718 11545.994 21253.916 6042.1133 17478.957 10870.752 16471.305
6763.7373 3466.0366 2041.1644 24634.03 40633.01 19091.398 12673.736 13419.352
9325.819 4193.1265 2032.2758 3302.8425 3824.275 11309.329 27101.682 9602.855
13147.926 5176.6675 8975.609 11248.818 2384.0813 10922.902 16307.617 36200.984
22811.363 5691.386 16698.867 7641.2764 15104.077 5804.5005 7565.7964 17989.764
17950.348 12841.329 4365.856 3223.2932 4334.538 13277.813 6642.7383 8077.2866
4683.261 13572.716 19799.133 23619.941 10208.67 2449.2856 7219.823 16114.888
17334.256 8917.394 14644.078 10045.093 12294.324 6521.0605 4338.7783 3799.2043
2884.2317 15412.363 31775.969 3415.2622 7426.735 7645.161 17724.504 16308.091
1633.3776 5514.143 16021.208 5491.1562 26444.83 2970.645 19001.459 19537.13
9158.007 6753.0005 12655.846 20415.428 26863.908 6974.067 17828.416 19550.178
5753.5034 4501.6064 6879.393 5463.744 10642.981 19712.79 18683.154 7894.2124
7515.723 21674.385 13126.564 23457.72 6164.9595 16447.088 32173.504 15003.201
7987.5645 6601.8716 3491.6265 3200.9536 17043.723 10567.691 33979.3 5150.063
33841.01 20980.305 18069.363 20991.777 18061.94 3175.5684 2417.4282 11166.473
21655.303 4900.9526 15685.778 8087.8794 11070.568 14749.605 4696.2153 8128.793
11356.218 21419.23 7966.861 16443.184 24142.094 4730.0503 9936.876 6184.514
7406.239 5711.037 4075.2976 21167.902 13345.558 5599.0 10933.429 2516.0498
6539.442 2302.0588 7423.163 3537.3904 25664.354 3468.116 4986.538 12393.171
15222.196 14481.242 12105.177 6167.3096 21238.234 10005.158 17700.854 20769.838
7254.882 6529.1787 4282.0713 3396.4976 19872.514 31337.268 30777.201 20724.373
19622.396 17878.121 13033.3545 4900.802 11391.118 26707.602 17530.297 6185.186
32588.154 23189.383 15053.243 3421.8044 2657.0085 12125.159 17090.457 12081.485
1997.9225 9993.56 9007.945 7805.5337 1542.1031 7510.12 7156.3975 2517.6665
26218.229 27628.098 2253.6663 4073.1355 19664.854 3652.6265 6715.52 9788.585
9547.364 9821.004 2790.3306 17669.268 3697.4697 22268.855 6181.8003 5988.2783
1769.8812 16995.336 19558.885 11221.062 11046.406 8258.068 9106.356 1555.1805
1908.8348 8342.956 2389.6116 3084.1938 13663.982 3122.3813 2607.3296 15787.537
2716.3474 15497.371 10347.651 1983.8059 4270.566 9872.206 21474.076 4590.364
5115.1436 4445.9014 2298.822 6579.5557 5690.595 4416.203 1723.5603 8489.19
3541.5662 10314.308 5982.67 9681.366 12937.327 3120.061 18167.47 12842.565
15203.948 6567.005 12701.34 969.271 5520.1074 7589.9688 4310.0303 3174.004

exp_avg f4 [16]
00000000: aa47 68c6 e715 88c6 6b91 55c6 e613 4ec6
00000010: 08f7 64c6 58f7 61c6 27ff 31c6 d389 40c6
00000020: 8943 6dc6 a0e3 88c6 0a29 5cc6 cd8a 4cc6
00000030: dcb5 4dc6 0fff 71c6 0dee 85c6 b461 84c6
-14865.916 -17418.951 -13668.3545 -13188.975 -14653.758 -14461.836 -11391.788 -12322.456
-15184.884 -17521.812 -14090.26 -13090.7 -13165.465 -15487.765 -17143.025 -16944.852

exp_avg_sq f4 [16]
00000000: 0616 8c4a 3722 c24a 1b50 674a 0618 584a
00000010: 1031 884a dbee 834a f0bb 204a b377 3c4a
00000020: d933 924a f8b7 c34a e9ce 7c4a e223 544a
00000030: e1d8 594a ff9a 984a bfc6 bd4a 20f6 b84a
4.590339e+06 6.3613715e+06 3.7898308e+06 3.5404815e+06 4.462728e+06 4.3231815e+06 2.633468e+06 3.0878528e+06
4.7907645e+06 6.413308e+06 4.1420102e+06 3.4757045e+06 3.5692082e+06 5.0005755e+06 6.2185915e+06 6.060816e+06

exp_avg f4 [32, 16, 9]
00000000: ec92 e1c3 7435 01c4 7e55 0ec4 d12f 19c4
00000010: e06c 22c4 205f 1ac4 f52e 0fc4 5b70 02c4
00000020: 4494 e5c3 c380 07c4 801a 1ac4 57e5 29c4
00000030: 2b22 37c4 5dea 41c4 3bb2 38c4 509b 2ac4
00000040: 53b6 1ac4 3db0 08c4 d6b5 e9c3 b2c6 07c4
00000050: 9abc 16c4 da7e 23c4 0f5f 2cc4 6003 25c4
00000060: 94a3 19c4 b69d 0cc4 1cd4 f7c3 889c c5c3
00000070: e48d e0c3 5ed6 f8c3 8e44 06c4 cbb0 0cc4
00000080: ee85 05c4 ca53 f8c3 1e49 e1c3 340e c4c3
00000090: c116 cec3 8a4c ebc3 d1bc 02c4 1ecb 0dc4
000000a0: eafc 16c4 6625 10c4 4600 07c4 4e48 f7c3
000000b0: abb5 dbc3 5f7b edc3 2d1e 07c4 9834 15c4
000000c0: ba1e 21c4 3e19 29c4 d660 21c4 a75f 15c4
000000d0: 91b9 06c4 89ac eac3 2922 b3c3 7a59 cbc3
000000e0: 0512 e0c3 35c7 f0c3 863a fcc3 5b4c efc3
000000f0: 9479 dec3 1c49 c7c3 bd37 aec3 477f afc3
00000100: 713f cbc3 3950 e0c3 07de f4c3 6bd5 01c4
00000110: cb9e f8c3 e199 e7c3 38eb d4c3 412e bbc3
00000120: cbc2 02c4 b4e6 14c4 990c 24c4 3074 31c4
00000130: 3146 3bc4 e95e 32c4 8ac3 24c4 d20e 16c4
00000140: 34d7 03c4 45e8 0bc4 27e4 1dc4 2434 2ec4
00000150: 2008 3bc4 0e3e 44c4 2c96 39c4 383b 2cc4
00000160: 2752 1bc4 3339 07c4 7dae d4c3 96cf f2c3
00000170: 54fb 04c4 af30 0fc4 c9d8 15c4 7b20 0ec4
00000180: edb6 02c4 2c32 ecc3 6ca6 cec3 fcac d7c3
00000190: 8e79 f5c3 2154 07c4 b22a 12c4 060c 1ac4
000001a0: b6c2 12c4 399b 08c4 9466 f7c3 2062 d8c3
000001b0: 793f bac3 44bb d2c3 6dc9 e7c3 c481 fac3
000001c0: 2928 03c4 d7db f9c3 723d e7c3 1728 d0c3
000001d0: 7411 b3c3 7465 e7c3 4017 04c4 e439 12c4
000001e0: b09f 1dc4 6ec1 26c4 9352 1ec4 1c66 13c4
000001f0: 60e0 05c4 dc40 ecc3 d2a4 e5c3 efb5 03c4
00000200: 1a3c 11c4 d6ce 1cc4 23fa 24c4 bb65 1dc4
00000210: 0f02 12c4 eba9 03c4 213d e7c3 ec60 f7c3
00000220: e5e3 0cc4 95a9 1bc4 f5c2 27c4 7af7 30c4
00000230: 5d77 27c4 6796 1bc4 a6ea 0cc4 8475 f8c3
00000240: 6983 f0c3 67ff 09c4 dece 17c4 2264 22c4
00000250: 4698 2bc4 5f66 22c4 f541 16c4 6261 08c4
00000260: 9c97 efc3 9c7d 10c4 ba68 24c4 c807 35c4
00000270: 0d47 42c4 e4d6 4cc4 415b 42c4 a614 33c4
00000280: cad0 21c4 8491 0ec4 7792 f9c3 a304 11c4
00000290: 37c9 20c4 f97d 2dc4 2f14 36c4 25b3 2dc4
000002a0: 9f59 21c4 b719 13c4 4c2b 01c4 44f6 d2c3
000002b0: 81a6 efc3 8192 04c4 8e60 0ec4 379e 14c4
000002c0: a894 0cc4 fe49 02c4 fb57 ebc3 2c4c ccc3
000002d0: 2af6 dbc3 2d58 fbc3 0755 0bc4 fe6c 16c4
000002e0: 1f7a 1fc4 ded7 17c4 27d6 0dc4 f865 01c4
000002f0: 6cfc e4c3 135c fdc3 d31f 10c4 07fb 1ec4
00000300: 1201 2bc4 edbc 32c4 75b7 29c4 3190 1cc4
00000310: 90dc 0cc4 8eaa f4c3 3445 bfc3 4d0d d9c3
00000320: 6ba2 eec3 a668 ffc3 d430 05c4 c3b2 fbc3
00000330: da4d e9c3 d066 d0c3 4399 b5c3 073a bbc3
00000340: 5710 d9c3 3b59 efc3 d701 02c4 503c 09c4
00000350: 6ce2 02c4 861c f3c3 b2a4 dec3 b251 c3c3
00000360: 148b 0bc4 95e2 1ec4 ddd6 2ec4 6a56 3cc4
00000370: 4bdf 45c4 7cb4 3bc4 9ff8 2cc4 ace2 1cc4
00000380: 047f 09c4 603f 15c4 976c 28c4 118d 39c4
00000390: 1736 46c4 3d32 4fc4 f14e 43c4 a6b2 34c4
000003a0: f75b 22c4 8ce6 0cc4 7dfa e2c3 e8a0 01c4
000003b0: 59c7 0dc4 f2e0 17c4 0217 1ec4 cd6c 15c4
000003c0: 4e27 09c4 f412 f7c3 bd7f d7c3 bb3d e6c3
000003d0: a3fc 02c4 ff2b 10c4 4f01 1bc4 0cb5 22c4
000003e0: 4086 1ac4 0761 0fc4 2665 01c4 3980 e1c3
000003f0: 5882 c6c3 e1a8 e0c3 0208 f7c3 91e8 04c4
-451.14783 -516.8352 -569.3358 -612.74713 -649.7012 -617.4863 -572.7337 -521.75555
-459.15833 -542.0119 -616.41406 -679.58344 -732.5339 -775.6619 -738.78485 -682.42676
-618.8488 -546.7537 -467.4206 -543.1046 -602.9469 -653.98206 -689.4853 -660.05273
-614.5559 -562.46423 -495.6571 -395.2229 -449.10852 -497.67474 -537.07117 -562.7624
-534.09265 -496.6546 -450.57123 -392.11096 -412.17776 -470.59796 -522.95026 -567.1737
-603.9518 -576.58435 -540.0043 -494.56488 -439.41928 -474.96384 -540.4715 -596.8218
-644.4801 -676.3944 -645.51306 -597.49457 -538.8995 -469.34793 -358.26688 -406.69904
-448.14078 -481.5563 -504.4572 -478.59653 -444.94983 -398.57117 -348.43546 -350.99435
-406.49564 -448.62674 -489.7346 -519.33466 -497.24057 -463.20218 -425.83765 -374.36136
-523.04364 -595.60474 -656.19684 -709.8154 -749.09674 -713.483 -659.0553 -600.23157
-527.36255 -559.6292 -631.5649 -696.8147 -748.12695 -784.9696 -742.34644 -688.9253
-621.2836 -540.89374 -425.3632 -485.62177 -531.927 -572.7607 -599.38727 -568.5075
-522.8582 -472.39197 -413.30017 -431.35144 -490.94965 -541.3145 -584.6671 -616.18787
-587.04236 -546.42535 -494.8014 -432.7666 -372.49588 -421.463 -463.57364 -501.0138
-524.6275 -499.7175 -462.48004 -416.3132 -358.13635 -462.7926 -528.3633 -584.90454
-630.4951 -667.02234 -633.2902 -589.59546 -535.50586 -472.5067 -459.28766 -526.8427
-580.9391 -627.2318 -659.9084 -629.58954 -584.03217 -526.65497 -462.47757 -494.7572
-563.56085 -622.6497 -671.0462 -707.8668 -669.86505 -622.35004 -563.6664 -496.9181
-481.02664 -551.99066 -607.2323 -649.5646 -686.3793 -649.59955 -601.0306 -545.5216
-479.18445 -577.96265 -657.63635 -724.1216 -777.11017 -819.35767 -777.42584 -716.32263
-647.2623 -570.2737 -499.14426 -580.07245 -643.144 -693.9683 -728.31537 -694.79913
-645.4003 -588.4018 -516.6765 -421.92395 -479.3008 -530.2891 -569.50867 -594.4721
-562.32275 -521.1561 -470.68735 -408.5951 -439.92316 -502.68887 -557.32855 -601.703
-637.90814 -607.3729 -567.3461 -517.59326 -457.97205 -506.71933 -576.49725 -635.9223
-684.0167 -714.95197 -678.8665 -626.253 -563.4463 -489.33246 -382.54065 -434.1039
-477.2689 -510.81757 -532.76294 -503.39658 -466.60822 -416.80322 -363.19736 -374.45334
-434.12766 -478.6971 -520.02875 -548.9424 -523.53784 -486.22284 -445.28668 -390.63824
-558.1731 -635.54034 -699.35724 -753.3502 -791.48895 -750.82007 -691.8847 -627.54175
-549.9846 -596.99023 -673.6967 -742.20416 -792.84515 -828.785 -781.23346 -722.7914
-649.43695 -563.6023 -453.95694 -518.51416 -567.1148 -607.5148 -632.3595 -597.7
-548.61414 -494.14807 -430.99796 -460.48227 -523.94745 -576.68744 -620.02045 -650.82886
-618.09766 -573.51605 -517.58044 -451.00174 -397.0183 -449.31937 -494.06256 -531.63385

exp_avg_sq f4 [32, 16, 9]
00000000: 8735 9745 d952 c545 da1c f045 2526 0b46
00000010: 943b 1c46 d516 0d46 8815 f345 9502 ca45
00000020: f55d 9c45 d45e dc45 3e9d 0e46 f366 2d46
00000030: 820b 4a46 7240 6246 aa74 4d46 c4e6 2f46
00000040: c8b5 1046 2d3d e145 309f a045 72b8 d845
00000050: 4156 0546 30d5 1c46 d2d6 2e46 4756 2046
00000060: 96f0 0a46 1f0c e945 166c b545 4f69 6345
00000070: cb07 9345 3d8a b445 1e14 d245 96c0 e645
00000080: ff08 d045 acd8 b345 edc7 9345 0c17 6045
00000090: 6a0d 7645 6ec4 a045 eba5 c645 3a40 ea45
000000a0: 4677 0446 b489 f145 b9f3 d345 95ae b145
000000b0: 2289 8c45 f1cf a545 0d1b d745 a842 0346
000000c0: a659 1946 1f8c 2946 d0cf 1a46 0b17 0546
000000d0: a3c2 d945 7f03 a645 043b 3a45 9a45 7045
000000e0: c6a9 9145 c1e2 a745 0ddc b745 423e a545
000000f0: 18e5 8e45 1495 6445 3877 2e45 6a16 3345
00000100: ce61 7045 d8dd 9245 7e98 ae45 2eff c345
00000110: 4fd3 b345 b341 9c45 b4ae 8345 64e3 4b45
00000120: 9143 cb45 d8dd 0346 0592 2046 3079 3b46
00000130: e8c4 5046 a7b4 3d46 3b3a 2246 ba61 0646
00000140: 12f4 ce45 5d2a ea45 bff9 1446 8a8e 3546
00000150: cbc0 5146 2b6d 6746 d317 4f46 4ba0 3246
00000160: 58b7 1146 031b de45 3acb 8645 6235 af45
00000170: 466f d245 dcf3 f345 8cba 0546 33c0 f045
00000180: b9b6 cc45 4c74 a645 90e4 7e45 b575 8845
00000190: 9009 b145 8778 d745 187c fb45 98c0 0b46
000001a0: a037 fe45 cee1 dc45 c3a4 b445 9b40 8a45
000001b0: 918c 4545 be28 7e45 e7f3 9945 6d1b b445
000001c0: d38c c645 38d7 b445 919a 9b45 b57b 7d45
000001d0: d942 3d45 d7a6 9f45 7e60 cf45 fb45 fd45
000001e0: 7017 1346 f440 2446 96ed 1346 defa ff45
000001f0: 194f d345 e608 a445 15bf 9d45 41d3 ce45
00000200: 2e73 fb45 5aa2 1246 e628 2246 be9d 1346
00000210: a123 fe45 6ee4 ce45 a996 9e45 a624 b545
00000220: d963 eb45 53f1 0f46 06b3 2746 dac7 3a46
00000230: cacf 2746 8431 1146 d5a1 ee45 d1bb b945
00000240: 629f aa45 210d e145 bdce 0846 4a34 1b46
00000250: 430f 2e46 b83d 1b46 311c 0546 a879 db45
00000260: 830b aa45 109c f945 a69f 2146 c29d 4346
00000270: 6108 6246 6ed4 7b46 9672 6346 1eee 4046
00000280: 956c 1d46 db6f f445 3e9c b645 db06 f645
00000290: 269b 1746 3f73 3046 3271 4246 cd9b 3046
000002a0: 69e5 1846 4dd9 fe45 d1ff c345 a9bf 8145
000002b0: ad60 a745 db54 cc45 c7cd eb45 0e98 0046
000002c0: f4e9 e545 d5e8 c545 2297 a045 a443 7245
000002d0: 795f 8b45 29f5 b745 3ce2 e045 1410 0446
000002e0: 44c8 1246 ff64 0546 2496 e845 1f3f c245
000002f0: 8e06 9845 69b0 bc45 9ef7 f345 9672 1446
00000300: 82ad 2c46 52c1 3d46 01f5 2946 30ee 1046
00000310: 09aa ed45 4ba9 b345 fa7b 5445 fed2 8845
00000320: bfa9 a445 0b37 bd45 42eb cc45 7d62 b645
00000330: 1a6f 9c45 5542 7945 fc2e 3d45 c222 4b45
00000340: 0abe 8845 b9cc a745 9f0a c545 198a da45
00000350: c48f c645 42a1 ab45 4396 8f45 1fd8 5c45
00000360: 27b9 e745 54d7 1546 0a44 3546 9044 5346
00000370: 9482 6946 c674 5146 5d6d 3246 b707 1246
00000380: a238 e045 d5fc 0446 2fa0 2846 0f66 4d46
00000390: 8b63 6a46 3c2c 8046 fbd6 6446 e7b4 4346
000003a0: 032f 1e46 e38d f045 bc6d 9945 f7bc c745
000003b0: b883 ef45 18ff 0846 351d 1446 e1ac 0446
000003c0: 35c2 e045 bad3 b545 ce37 8a45 313e 9b45
000003d0: 1bc8 c845 0571 f345 d5de 0c46 38f8 1a46
000003e0: 8d08 0d46 f0c5 f245 e9f7 c445 a9f0 9445
000003f0: f3d4 5f45 a9f3 8f45 e408 af45 ae90 ca45
4838.691 6314.356 7683.6064 8905.536 9998.895 9029.708 7778.6914 6464.3228
5003.7446 7051.8535 9127.311 11097.737 12930.877 14480.111 13149.166 11257.691
9261.445 7207.647 5139.8984 6935.0557 8533.563 10037.297 11189.705 10261.569
8892.146 7457.515 5805.5107 3638.5818 4704.974 5777.28 6722.5146 7384.073
6657.1245 5755.084 4728.9907 3585.4404 3936.8384 5144.5537 6356.7397 7496.0283
8477.818 7729.213 6782.4653 5685.8228 4497.1416 5305.9927 6883.3813 8400.664
9814.412 10851.03 9907.953 8517.761 6968.3296 5312.437 2979.6885 3844.35
4661.2217 5372.344 5883.5063 5287.782 4572.6367 3657.3174 2791.4512 2865.401
3846.1128 4699.7305 5587.0615 6271.8975 5754.4136 5000.2124 4213.838 3262.212
6504.446 8439.461 10276.505 11998.297 13361.227 12141.163 10382.558 8600.432
6622.509 7493.2954 9534.437 11619.635 13424.198 14811.292 13253.956 11432.073
9325.836 7107.3765 4313.4033 5606.673 6733.909 7806.4824 8558.637 7704.025
6550.8403 5326.537 4078.2852 4366.7134 5665.1953 6895.066 8047.5117 8944.148
8134.953 7068.2256 5780.595 4424.0757 3160.7854 4066.5464 4926.488 5763.428
6353.603 5786.9023 4979.321 4055.7317 3028.178 5108.855 6636.0615 8104.7476
9413.859 10512.238 9467.396 8191.3584 6761.887 5249.1123 5047.8853 6618.4067
8046.3975 9384.588 10378.225 9447.436 8132.4536 6620.5537 5074.8325 5796.581
7532.481 9212.331 10732.756 11953.963 10739.947 9292.379 7636.229 5943.477
5459.923 7201.641 8755.685 9933.072 11139.815 9935.43 8519.048 7023.207
5441.439 7987.508 10343.912 12519.439 14466.095 16117.107 14556.646 12347.529
10075.1455 7821.982 5843.5303 7872.857 9702.787 11292.812 12444.299 11302.95
9785.353 8155.1626 6271.977 4151.9575 5356.0845 6538.607 7545.722 8230.014
7357.244 6333.104 5138.8916 3876.2275 4459.934 5886.645 7196.2793 8452.02
9394.066 8537.249 7442.7676 6215.89 4864.8193 6038.0513 7806.952 9500.646
11051.377 12144.33 10877.251 9275.547 7605.2544 5749.1616 3399.7485 4378.374
5269.2183 6054.8804 6557.407 5836.311 5005.8877 3988.1458 3026.9365 3250.1724
4375.755 5369.5903 6305.3276 6993.262 6353.9707 5492.157 4594.7827 3533.5076
7415.144 9589.832 11601.01 13521.141 14944.645 13405.193 11419.341 9345.929
7175.079 8511.208 10792.046 13145.515 15000.886 16406.117 14645.745 12525.226
10123.753 7697.736 4909.717 6391.6206 7664.465 8767.773 9479.302 8491.22
7192.276 5818.466 4422.9756 4967.774 6425.013 7790.1274 9015.708 9918.055
9026.138 7768.742 6302.989 4766.0825 3581.3093 4606.4575 5601.1113 6482.085

exp_avg f4 [32]
00000000: 86a1 42c5 3a8b 4dc5 4467 36c5 b20b 2ec5
00000010: c014 2ac5 2684 33c5 8482 34c5 09f3 2ec5
00000020: a797 3ec5 e0f0 2fc5 5433 3fc5 f026 39c5
00000030: d991 37c5 0fff 3fc5 0d6f 2fc5 9c50 32c5
00000040: 5b1a 44c5 2ab1 38c5 d299 31c5 f687 41c5
00000050: 5739 37c5 dbae 25c5 139d 2ec5 cc1a 3fc5
00000060: 4ac2 42c5 fb10 39c5 0f7f 33c5 3d3c 34c5
00000070: 6ea2 37c5 37b2 38c5 dd9f 34c5 dc3f 2dc5
-3114.0952 -3288.7017 -2918.454 -2784.731 -2721.2969 -2872.2593 -2888.1572 -2799.1897
-3049.4783 -2815.0547 -3059.208 -2962.4336 -2937.1155 -3071.9412 -2806.9407 -2853.038
-3137.6472 -2955.0728 -2841.6138 -3096.4976 -2931.5837 -2650.9285 -2793.8171 -3057.6748
-3116.143 -2961.0613 -2871.9412 -2883.765 -2938.1519 -2955.1384 -2889.9915 -2771.9912

exp_avg_sq f4 [32]
00000000: 06a6 7548 0ea2 8748 bbba 5248 7e6a 3948
00000010: 71dd 3048 e718 4648 b66a 4f48 2e4a 3d48
00000020: 273f 6a48 cdf7 3a48 fb06 6948 2afc 5b48
00000030: db41 5448 1159 6948 a218 3b48 6e65 4848
00000040: b0b3 7848 97b9 5948 8178 4548 ad4d 7548
00000050: 4b14 5048 1aac 2348 1339 3b48 785b 6648
00000060: 6f90 6d48 333a 5848 60b8 4848 29a5 4a48
00000070: 043a 5248 ddd7 4b48 247d 4a48 a13a 3a48
251544.1 277776.44 215786.92 189865.97 181109.77 202851.61 212394.84 193832.72
239868.61 191455.2 238619.92 225264.66 217351.42 238948.27 191586.53 205205.72
254670.75 222950.36 202210.02 251190.7 213073.17 167600.4 191716.3 235885.88
243265.73 221416.8 205537.5 207508.64 215272.06 208735.45 207348.56 190698.52
