sample/lightning_logs/version_0/checkpoints/epoch=4-step=40.ckpt (torch, 213552 bytes, 21 tensors)

model.0.weight f4 [64, 1]
00000000: 71fc 72bf 58ef 713f 2436 8fbe c46b 0a3f
00000010: 540a 5bbf c075 cb3d b971 67bd 5db2 b6be
00000020: e9e6 13bf bef1 1abf 3614 0abf bb8a 663f
00000030: 50f4 53bf 6690 e3be 8109 6abf 31fd 3c3f
00000040: 1222 febe 506e 46bf f1bd 613e 0769 213f
00000050: b6dc 2cbf b054 79bf 370e f9be 2515 5f3f
00000060: 9c04 74bf d020 ee3e 4a76 663d 2b43 703f
00000070: 3633 dabe 056f 5dbf e361 2cbf b431 563f
00000080: 923b 70be dc26 dd3e f4bd f1be 40ce e93e
00000090: df3e 4fbc 96c5 803f 65e7 713f d0a9 b5be
000000a0: 8441 403f 7450 43bf daab 01bf 22bb 0fbf
000000b0: 0faf ec3e c03f 2dbd 3f57 51bf c857 ebbe
000000c0: 246a 31bf 03b1 8b3d e856 bcbe 6a3d 18be
000000d0: 0534 58be df32 eebe eec0 7fbe a8b8 183f
000000e0: 9791 7f3f 7017 a83d 7eb7 393f 9729 55bf
000000f0: 386f fbbe 0aa1 3f3f 7ad8 5dbf a3a4 863c
-0.94916445 0.94505835 -0.27970994 0.5407069 -0.85562634 0.099345684 -0.05650494 -0.35682955
-0.57774216 -0.6052512 -0.5393709 0.90055436 -0.82794666 -0.44446105 -0.9142075 0.7382384
-0.4963537 -0.77512074 0.22045113 0.63050884 -0.6752428 -0.9739485 -0.48643658 0.8714164
-0.95319533 0.4650941 0.056265153 0.9385249 -0.42617196 -0.8649753 -0.67336863 0.8366959
-0.23460224 0.4319371 -0.47215235 0.4566517 -0.012649267 1.0060298 0.94493705 -0.3548112
0.7509997 -0.76294637 -0.5065285 -0.56144917 0.4622731 -0.042297125 -0.8177375 -0.4596541
-0.6930258 0.06820872 -0.36785054 -0.14867178 -0.21113594 -0.46523187 -0.2497594 0.59656763
0.9983153 0.08207595 0.7254561 -0.83266586 -0.4910829 0.748551 -0.8665844 0.016435927

model.0.bias f4 [64]
00000000: e40d 6abf eb92 1a3f 5cdf 77bf 18c5 5cbf
00000010: 83b6 3abe 208d 1fbf a1a7 553f d651 e33e
00000020: 958b d73e 020e 29bf 7b98 103e b81d ef3e
00000030: a21a 76bf 914c afbd 9b2f 0e3f 2ff6 583d
00000040: 27c2 a0be de14 7dbf 719f 763c 6b62 93bd
00000050: ba1d 5bbf 8a81 63bf 56a5 313f 634e 2f3f
00000060: 36cf 8abe 62a3 fabd 0e16 063f e188 b43e
00000070: 1960 df3d b1d6 133e 3e2f 7b3f 6ee1 78bf
00000080: 07b7 473f a0d9 3dbf a863 f6be 52d8 48be
00000090: 4923 5c3f 0ff1 4cbf 3e11 02bf c577 493f
000000a0: 5672 4cbf f85b 053f 6bb2 583f 4c20 5bbf
000000b0: 4e25 a3be 306c 0fbe fc52 043f b889 35bf
000000c0: 14e1 6c3f 612e 4d3d cebe 7abf c7b8 5d3f
000000d0: 8e9f a5bd 3587 9bbe d4ba 2d3f 0777 743f
000000e0: 1b6c 7a3d 9cf0 e0be f925 ed3c 8741 a53e
000000f0: 241c 7e3d 142f 163f f445 0d3f aa94 243f
-0.91427445 0.6038043 -0.96825194 -0.8623824 -0.18233685 -0.62324715 0.83458906 0.44398373
0.4209868 -0.66037 0.14120667 0.4670236 -0.9613439 -0.08559526 0.5554139 0.052969154
-0.31398126 -0.98859966 0.015052662 -0.07196506 -0.85592234 -0.88869536 0.6939291 0.68478984
-0.27111214 -0.12238194 0.523774 0.3526068 0.10907001 0.14437367 0.9811896 -0.9721898
0.7801365 -0.74160194 -0.48122907 -0.1961377 0.8599134 -0.80055326 -0.5080756 0.7869838
-0.7986196 0.5209346 0.84647244 -0.85596156 -0.318644 -0.14006114 0.51689124 -0.7091327
0.9253094 0.05009306 -0.97947395 0.8661007 -0.08087073 -0.30376592 0.678632 0.9549412
0.061138254 -0.4393357 0.02894877 0.32276556 0.062038556 0.58665586 0.55184865 0.64289343

model.2.weight f4 [128, 64]
00000000: cca4 b03d 147a 0fbd e06c 083c 70fe 7fbd
00000010: 9404 523d e0e8 24bd c0f3 30bd f83f 89bc
00000020: 44f6 6cbd b0e1 843d d893 d03c 504b c13c
00000030: 4499 793d ce57 c0bd e81b 773d fc5e 8cbd
00000040: e60f 91bd 208c 753c dcca 753d a821 19bd
00000050: b4a8 c03d dc51 89bd 2c35 c8bd f8af a7bd
00000060: d82d 853d 641c 703d 2e1b 90bd 1a23 d5bd
00000070: 48d1 e03c d031 f4bd a438 dfbd 4ccc 983d
00000080: 145b a0bd 847c d03d d82d bc3d 6859 553d
00000090: e099 bd3b dad5 aa3d ce78 f33d 5865 763d
000000a0: 9c89 6dbd 5ca9 e9bd e26a 95bd 38e8 5fbd
000000b0: 3019 103d 2a17 943d 4099 3cbb 0844 fdbc
000000c0: 3802 fabd 1840 2abd 2af2 b53d 32e8 ca3d
000000d0: b091 d13d c07b 46bd 26f3 ca3d 0881 7fbd
000000e0: 169f 923d d053 08bd 0437 6fbd 0259 b9bd
000000f0: e011 043c a6e8 a4bd de85 8f3d e2a2 973d
00000100: 1c3d 033e 8cfc 1fbd 4a0c bcbd 242c d03d
00000110: f8cd f93b 60fe f8bb ec67 e73d 6751 293b
00000120: d940 29bd 4043 1b3d 1135 9bbc eb0b 36bd
00000130: 5ed2 b43d a576 8c3d c6f7 a33d 4c65 ab3d
00000140: 8e03 88bd 00b9 86bc d149 d5bc ca89 15bd
00000150: 8270 f5bd 98d7 553d b949 dcbc 34a4 6f3c
00000160: 907b 9cbd feab a93d 88cd 8fbd 90e0 9b3d
00000170: 54a9 883d 3a83 fc3d 22e3 c43c a0a4 9a3b
00000180: d794 0e3d 00e1 cc3a a06b 81bd 7e78 8f3d
00000190: 22ff 103e 9a22 e4bc 89b1 3abd 1eda 3cbd
000001a0: e83b c83c f25b a13d fadb b6bd 406e 66bb
000001b0: 04db c2bd 8039 f03c c63f ee3d 667a e53d
000001c0: 9220 d93c f458 0a3e 16ab abbd e385 ec3d
000001d0: 7643 08bd 648e dcbc bed6 88bd 5b4f 01bc
000001e0: b65d 153d 0ad5 873d 8088 e2bc ed9a 33bd
000001f0: 4cf9 d13d b10e bbbd 63d8 6ebc 5f7c f33d
00000200: ab3a bbbd ef7b df3d f04b 33bd 10b1 d4bc
00000210: ddb5 d03d a629 f93d 0e15 fb3c 6cd7 0b3d
00000220: 6992 b23d d085 753d 22e7 3bbd 57fc d93d
00000230: 2cd9 fe3d f1ac a4bd db59 8cbd 24bd bb3d
00000240: 01e6 24bb 30ae 983d 4002 493d c1c9 eb3d
00000250: 284e debc b5b3 8f3d 1580 253d 38f2 7ebd
00000260: e01f 103e ea7a 033e f327 c9bd 5eb9 f9bc
00000270: 1f86 66bd 7bed c2bd ac56 8c3d 0069 c93c
00000280: 3e5a a93d 2c73 ec3d a6b0 c4bd d92f d0bd
00000290: cb0a 0a3e 59b1 6cbb ea06 32bd 295b 9a3d
000002a0: 6ef7 b6bd d12d 913d 9409 d23d 5824 a8bd
000002b0: 14b7 89bd 6c41 c63d 362c 8f3d 80b1 be3a
000002c0: 6537 213d 0b39 59bd 0698 f93d c703 40bd
000002d0: c602 663d 6b4c a33b 55d5 b33d 8dcb 893c
000002e0: 0338 ad3d 9c4a 383d 75df d23d c10b 83bc
000002f0: 6f6b bc3d 884b b9bb f26b 61bd d97a 113e
00000300: 70c4 b93d 51f2 60bd 26d0 8d3d a845 79bd
00000310: 9bf2 013e 36ee cd3d 7811 fa3d 1db9 c9bd
00000320: a4f5 683d ba76 9fbd 64e6 9f3d a23f a9bd
00000330: ae27 ddbd 1d80 303d 00e1 dc3c 87d0 be3d
00000340: 7e0f 0b3e e0ef a0bc 79e6 533d 4871 d1bd
00000350: f002 d03c 4914 db3c 924d cc3c 639a cfbc
00000360: df14 7bbd c0ba 3e3c f985 2cbc f130 77bd
00000370: e5b7 f13d dd57 54bb 5292 ef3d ecca 15bd
00000380: fe6d 90bd c0ea 6b3d fa1e fa3d ca38 cfbd
00000390: 0164 9cba 80be bc3a ca1e f43d de2f 123d
000003a0: 74ef 8abd 8cec 013e bdcb a13d 14ff 39bd
000003b0: 5854 83bc ae5e fbbd 60ff 353d 5859 ce3c
000003c0: ae0e 38bc 27f6 20bd 8c7f e8bd b1cc ce3b
000003d0: 72c8 983d 0399 743d fcef fabc 22f2 3a3b
000003e0: 90df 1bbc bcf8 97bd dd1e afbd d3d1 b2bd
000003f0: 7eeb 023e b29e 4bbd e8c2 aebd 206c 8d3d
0.086251825 -0.035028532 0.008326739 -0.06249851 0.051273897 -0.04026115 -0.043201208 -0.016754135
-0.057852045 0.06488359 0.025461122 0.023595482 0.06093718 -0.093917474 0.060329348 -0.06854054
-0.070831105 0.014987022 0.060007915 -0.037385613 0.094071776 -0.067050666 -0.09775767 -0.0818786
0.065028846 0.058620825 -0.07036434 -0.10407086 0.027443543 -0.119235635 -0.10899475 0.074608415
-0.07829872 0.101799995 0.091884315 0.052087218 0.0057861656 0.0834157 0.11888276 0.060155243
-0.057992563 -0.11409256 -0.07295777 -0.05466482 0.03518027 0.07230981 -0.0028777868 -0.030916229
-0.122074544 -0.04156503 0.0888408 0.09907569 0.10232866 -0.04845786 0.09909658 -0.062378913
0.071592495 -0.033283055 -0.058402076 -0.0905018 0.008060902 -0.08052187 0.07007955 0.07404114
0.1281628 -0.039059207 -0.091820315 0.10164669 0.0076234303 -0.0075986832 0.112991184 0.0025835873
-0.04132161 0.03790593 -0.018946202 -0.04444496 0.08829187 0.06858567 0.080062434 0.0836893
-0.06641303 -0.016445637 -0.026036175 -0.03650836 -0.1198435 0.05220756 -0.026890622 0.014626551
-0.07640755 0.08284758 -0.07021624 0.07611191 0.06672922 0.12329717 0.024034087 0.004719332
0.034809913 0.001563102 -0.06319356 0.07005404 0.14159825 -0.02784853 -0.045579467 -0.04610645
0.024442628 0.07878865 -0.08928676 -0.003516093 -0.0951443 0.029324293 0.116332576 0.11204986
0.026504789 0.13510495 -0.083822414 0.11548974 -0.03326746 -0.026923366 -0.06681584 -0.007892455
0.036466323 0.06632431 -0.027652979 -0.04384892 0.10252628 -0.091336615 -0.014577958 0.11888956
-0.091420494 0.1091231 -0.04377359 -0.025963336 0.10190938 0.12166147 0.030649688 0.03414099
0.08719332 0.059942067 -0.045874722 0.10643833 0.12443766 -0.080407985 -0.06853076 0.09166935
-0.0025161507 0.07455099 0.04907441 0.11513091 -0.027136877 0.07016698 0.04040535 -0.062242717
0.1407466 0.12839857 -0.09822073 -0.030483898 -0.05628025 -0.09517952 0.06852469 0.0245862
0.082691655 0.11545405 -0.096040055 -0.10165376 0.1348068 -0.003611645 -0.043463625 0.07536919
-0.08933912 0.07088817 0.10255733 -0.08210057 -0.067243725 0.09680447 0.069908544 0.0014548749
0.03935947 -0.053032916 0.12187199 -0.046878602 0.05615499 0.004983475 0.08780924 0.016820693
0.08457949 0.044993028 0.10296527 -0.015996816 0.09200179 -0.005654756 -0.055034585 0.14207019
0.090706706 -0.05491859 0.06924467 -0.060857445 0.12690203 0.10055201 0.12210363 -0.09849761
0.056874886 -0.07786317 0.078076154 -0.0826409 -0.10798584 0.04309093 0.026962757 0.09317117
0.13580129 -0.019645631 0.051733468 -0.10226685 0.025392026 0.026743071 0.024939332 -0.025342172
-0.0612992 0.011641204 -0.010529988 -0.06034941 0.11802653 -0.0032401003 0.1169783 -0.036570475
-0.07052229 0.057596922 0.122129396 -0.101182535 -0.0011931659 0.0014400035 0.11919935 0.03569018
-0.06783953 0.12687892 0.07900188 -0.045409277 -0.01603143 -0.12273918 0.044432998 0.025189087
-0.011233969 -0.03929725 -0.11352453 0.006311022 0.07460107 0.059716236 -0.030632012 0.002852567
-0.009513751 -0.07420489 -0.085508086 -0.08731427 0.12785146 -0.04971189 -0.08533269 0.06905389

model.2.bias f4 [128]
00000000: d070 cf3c fcf8 64bd 6070 21bd 573e 8ebd
00000010: 3b90 5e3c e328 913d 3066 b93c a0be a7bd
00000020: 746f d13a 302b b1bd 0498 31bd 73de 963c
00000030: 3aae d53c 418e 7cbd b3ad c4bd 6fff bf3d
00000040: 0c3a 3cbd 304a 03be c4a6 133e 6075 11bb
00000050: 420d cdbd 4e0c f73d 0063 fabb 5366 463d
00000060: 6ad6 153c 40c3 d0bc 787e bc3c 4dea a2bd
00000070: f087 1e3c b231 e23d e006 d73d 03f6 babc
00000080: 6301 1abd 0fc0 fcbc acea b63d 1e2c 843d
00000090: dc0b 1fbd 2230 a43d 4cd3 0c3e 0541 4abd
000000a0: 074c d23d b2c2 8abd cf5c b6bd a127 153e
000000b0: c0a3 31bd 807c a8bc af43 6e3d 68cf ccbc
000000c0: 6144 123c 93bc 013e ec4f be3d d34b 1fbd
000000d0: f96a ea3d 9c7c ae3d b8e9 9f3c 091e 9abd
000000e0: 6211 c53d e0af 1c3d 20c4 d23b 2180 953d
000000f0: 4612 163d 50db c4bd 69b3 0f3e 1c2a 59bd
00000100: f5be 21bc 59e3 89bd 4b11 e93d c13c 2bbd
00000110: 1293 a0bd 4ed2 0f3d 4de6 94bb 009a 713c
00000120: 408b 383d 766d f0bc 0985 febd 399f 7f3d
00000130: 6b09 68bd 9b34 3dbd 509f 24bc 3013 bebd
00000140: 7c0e a63d 8163 c23d 6eb3 98bd 60c8 8cbc
00000150: 24f9 ac3c 8076 1f3c 20b9 68bd dd58 bf3d
00000160: 2526 0b3d 20e4 b63c 8fd0 5b3d a8a6 89bd
00000170: fcab 1abd 8ef9 183d 8038 5ebd a027 edbd
00000180: 2838 27bd 1174 183d 8d24 fe3c 0492 0a3e
00000190: 0713 8a3d d59d 20bd 70e0 87bd dd7b 8c3d
000001a0: a377 96bd a033 d4bd 2c51 273d ce5b 983d
000001b0: 6292 8dbc e8af 95bc 7cb5 773d 00a6 253d
000001c0: 3d66 f5bd 568d 893d 3163 823d bb5c 6abd
000001d0: 5c01 0d3d bc47 883d 7acf d5bc 9aaf c23d
000001e0: cdb8 9abd f6f4 123e f2a4 92bd d746 e53d
000001f0: 6842 b43c e268 b63d 57f7 903d c148 043e
0.025322348 -0.055901513 -0.03941381 -0.06945484 0.013584192 0.07087877 0.022631735 -0.08190656
0.001597865 -0.086508155 -0.043357864 0.018416619 0.026084054 -0.0616591 -0.09603443 0.09374892
-0.045953795 -0.12821269 0.14419085 -0.0022195205 -0.10012294 0.12062894 -0.0076411963 0.048437428
0.009145359 -0.025483727 0.023009524 -0.079548456 0.009675965 0.11044635 0.10499358 -0.022822386
-0.03759898 -0.0308533 0.08931479 0.06453727 -0.03882967 0.08016993 0.13752478 -0.049378414
0.10268407 -0.067754164 -0.089044206 0.14565898 -0.043369055 -0.020567179 0.058170017 -0.025001243
0.008927436 0.12669592 0.09292588 -0.03889067 0.11446185 0.08519861 0.019520625 -0.0752526
0.09622456 0.038253665 0.0064320713 0.07299829 0.03663852 -0.09612143 0.14033283 -0.053018674
-0.009872188 -0.06732816 0.113802515 -0.041805986 -0.078405514 0.03511267 -0.0045440556 0.014746189
0.045054674 -0.02934907 -0.12427718 0.062407706 -0.056649607 -0.046192747 -0.010047749 -0.092810035
0.081082314 0.09491635 -0.074560985 -0.01718539 0.021114893 0.009732842 -0.056817174 0.09343121
0.033971924 0.022325575 0.053665694 -0.0672124 -0.037761673 0.03734737 -0.0542531 -0.115798235
-0.04082504 0.037220065 0.031023288 0.13532263 0.067419104 -0.03921302 -0.06634605 0.068595625
-0.07347038 -0.10361409 0.040848896 0.07439385 -0.017281715 -0.018272355 0.06047581 0.040441513
-0.11982391 0.06716411 0.063665755 -0.05721734 0.034425125 0.06654307 -0.02609991 0.095061496
-0.07554779 0.14351258 -0.07160367 0.11195152 0.022004321 0.089067236 0.07078426 0.12918378

model.4.weight f4 [64, 128]
00000000: a8f7 703c dba4 77bd a85a 89bd 6989 3c3c
00000010: 5acf 5abb 4406 ccbc 167c 023d d2c9 943c
00000020: 8271 a53c bb36 993d afe5 b23d 6ac8 763d
00000030: 88f7 f6bc b5e4 5ebc 8288 3c3d 7f85 ae3d
00000040: 9c61 2bbd 4a2a 9dbd d2ac 7e3a 2ee1 b53d
00000050: d37f 2dbd 73af a0bc 7541 873d 230f 44bd
00000060: 1d52 0ebd c092 e2bc c0b9 b7bb 26f0 91bd
00000070: 2d53 813d 6ebf f83c 439e 6d3d e560 a53d
00000080: d1b9 7dbc 62a9 6fbd 522d 233d 2c94 c3bc
00000090: e09b a3bd 5d3f 8dbd 8d04 883d 1002 7f3d
000000a0: a486 d03d 651f 05bd 066e 033c 5b9c e5bb
000000b0: 07ba 613d 5af9 93bd 5c14 27bc 635d 8c3d
000000c0: 5f4d 5d3d c01a a6bc 7800 633c d081 ee3c
000000d0: 09ce 3b3d 1e0c 2a3d 689f b4bc a8ef 46bd
000000e0: 7a24 a4bc 12e2 35bc 70d6 81bd 7f08 593d
000000f0: 0e61 b4bb 6167 14bc 4815 ebbc 60d8 5d3c
00000100: cf0e c23d e120 21bd 387d 48bb 74f3 4b3c
00000110: b10c 81bd 2c02 85bc 0e3a b1bd 65cf 54bd
00000120: 9e80 733d bf9f 31bd 14e7 1ebd 2e02 a5bc
00000130: 1b2d 3abd 81e1 963c 5a8f 173d 7541 30bd
00000140: dc83 043d a805 903d 2251 9ebd c30a 853d
00000150: 9cc7 f2bc ae5f 733d 2c05 5f3d b8c5 f23c
00000160: 13fb c43d 4608 7a3d fd00 4dbd c1c5 213d
00000170: bdb6 ac3d 27c5 a63d 5bc6 9c3d 9071 643d
00000180: 30ac 51bd 5416 983d a140 0dbd de4b 833d
00000190: 759d b93d d090 8bbd 5bf8 40bd 20ec cabb
000001a0: df44 d5bc 1cb4 eabc 1efc 723d c1c6 d63c
000001b0: 8ab1 b73d f6ac 693d 0e5a 05bd 774c 843c
000001c0: ea62 1a3d 109f cb3d 4117 c53d 633d 78bd
000001d0: 54c5 673d 56b2 2ebd 5c3e db3c e062 b33c
000001e0: 1298 113d 8b56 de3d 908c 8d3c 3455 19bd
000001f0: 3b7a 65bd 9ff6 57bd c468 b43d 84a7 d43d
00000200: 4967 863d 374a cb3c e8d6 92bd 0ee8 babd
00000210: 85e6 2f3b f379 1abb e56c 903d f0c6 db3c
00000220: 2a47 afbd 27f1 853d caa1 333d d3e8 5fbc
00000230: 1574 f7bb 0c74 623b 477e 5cbd f7ed dfbc
00000240: f5f9 ad3d f28f 5f3d 09ad 8c3d 2b4f 9cbd
00000250: 17b7 87bc 186f 75bd 4040 e6bb edc6 38bd
00000260: a8e0 d6bb 58c7 2ebc 3a63 4abd 2776 72bd
00000270: f405 013d 77cf b13a 8878 6fbc a8e8 983d
00000280: 7ba9 f83c f7d0 3abd 0192 86bd 6867 3d3c
00000290: 07d7 02bd 4961 a1bc aaa9 bfbc 937b 0ebd
000002a0: d7ad 72bb 1f08 65bd a4c3 a03c e419 15bd
000002b0: 896d 4bbc e8f5 99bc a32a 3fbd da43 1a3c
000002c0: da86 e1bb d588 76bc 6c9c 87bd d78c 853c
000002d0: 09f3 90bb 10cf c8bc d2c8 603d 765d 9b3d
000002e0: ccf5 0cbd 9d33 90bc a25e 2ebd d70c c1bd
000002f0: 6250 653d 3d2d c4bd 8f6f 993d 5338 8bbd
00000300: 9aa7 3e3d 1a5c 7f3d a78e abbd bd65 b0bd
00000310: 5099 e83c 6062 c6bc e482 143c 79fe 15bd
00000320: 569e 5b3d 1438 143d 259b afbc f1d5 6dbc
00000330: 440a 6a3c 98a7 153c 8097 033a 8cd3 b4bd
00000340: ea4e 1bbd 32f5 5a3c 3002 a2bb 1e04 1d3d
00000350: 7854 a2bd 38f6 e13c 7910 943d 6403 32bd
00000360: 17b9 abbc 8822 013c 33e0 27bd 599a b3bd
00000370: d223 a8bd 1346 7a3d 6a9f 263d 3fb4 67bb
00000380: 15d7 26bd 53e1 103d 90a3 003c 4da4 56bd
00000390: 4f24 853d 057e 3c3d 6bf7 1cbd 9e76 2f3d
000003a0: b86e b7bc 401c b43c 081b 373c abc5 a1bc
000003b0: a8f1 0c3d c055 5abb a827 cabc 098f b83c
000003c0: d205 a1bc 2b84 f33c afa7 9fbd 3181 423d
000003d0: a754 c2bd 75c7 a23d 3540 2cbd de9d 9fbc
000003e0: 3806 aebd fc0f b2bd 9ea4 9abd d37a bd3c
000003f0: 0059 103d 89f2 c0bd 5ff0 1ebd 73dc c5bd
0.014707483 -0.060459953 -0.067067444 0.0115073705 -0.0033387751 -0.024905331 0.03185662 0.018162642
0.020195726 0.07481142 0.08735215 0.060249723 -0.030147329 -0.013604333 0.04602862 0.08521556
-0.041841134 -0.076740816 0.0009715083 0.0888084 -0.04235823 -0.01961491 0.06604282 -0.047865998
-0.034746278 -0.027657866 -0.00560686 -0.07125883 0.06314693 0.030364718 0.05801226 0.08075122
-0.015486197 -0.058511145 0.039838143 -0.023874365 -0.07988715 -0.06896851 0.06641493 0.062257826
0.10181931 -0.032500643 0.008021837 -0.0070071644 0.05510905 -0.072252944 -0.010197725 0.068537496
0.054028865 -0.020276427 0.013855092 0.029114634 0.045850787 0.041515462 -0.022048667 -0.048568398
-0.020036925 -0.011101263 -0.06339729 0.052986618 -0.005504734 -0.009057851 -0.028696671 0.013540357
0.09475481 -0.039337996 -0.0030592214 0.0124481805 -0.06301249 -0.016236387 -0.08653651 -0.0519556
0.05944883 -0.043365236 -0.038794592 -0.02014264 -0.045453172 0.018418076 0.037001945 -0.043031175
0.032352313 0.07032329 -0.077303186 0.06496193 -0.029636197 0.05941742 0.05444829 0.029635295
0.09618201 0.061043046 -0.05004977 0.039495233 0.08433292 0.081430726 0.07655021 0.055772364
-0.0511896 0.07426134 -0.034485463 0.06410955 0.09063236 -0.0681473 -0.04711185 -0.006192699
-0.026033817 -0.028650336 0.05932247 0.02621782 0.0896941 0.057049714 -0.032556586 0.016149743
0.037691988 0.09942448 0.09623576 -0.060605418 0.05658467 -0.042650543 0.026763134 0.021897733
0.035545416 0.108563505 0.01727894 -0.03743477 -0.05602477 -0.05272543 0.08809045 0.103835136
0.06562669 0.024815662 -0.07169896 -0.09126292 0.0026840281 -0.0023571223 0.0705202 0.02682826
-0.08558495 0.06540137 0.043855466 -0.013666349 -0.00755168 0.0034554033 -0.053831365 -0.02733515
0.08494941 0.054580636 0.06868941 -0.076322876 -0.016566796 -0.0599204 -0.007026702 -0.045111585
-0.006557543 -0.010667644 -0.049411036 -0.05919471 0.031499818 0.0013565858 -0.014616139 0.07466251
0.030354252 -0.04560944 -0.06570817 0.0115602985 -0.031943347 -0.01969971 -0.023396332 -0.03478582
-0.0037029886 -0.055915948 0.019624539 -0.036401644 -0.012416252 -0.018794015 -0.04667152 0.009415591
-0.0068825306 -0.015047272 -0.06621632 0.01630251 -0.0044235033 -0.024512798 0.054879017 0.07586186
-0.034414098 -0.017602736 -0.042570718 -0.09426277 0.055984862 -0.09578941 0.07491981 -0.06797852
0.046546556 0.062343694 -0.08376818 -0.08613155 0.028393418 -0.02421683 0.00906441 -0.036619637
0.053617798 0.036186293 -0.021436283 -0.01451634 0.014284674 0.009134196 0.00050198287 -0.08829412
-0.037917055 0.013364123 -0.0049441084 0.038334005 -0.079262674 0.027583227 0.072297044 -0.043460265
-0.020962281 0.007881768 -0.040985297 -0.08769674 -0.08209957 0.061101984 0.040679373 -0.0035355238
-0.040732462 0.035371136 0.007851496 -0.052402783 0.06501066 0.04601862 -0.038321894 0.04283773
-0.022391662 0.021986127 0.011175878 -0.019747576 0.03441015 -0.003331527 -0.024677113 0.022529142
-0.019656096 0.029726109 -0.07795655 0.047486488 -0.094888024 0.079482 -0.04205342 -0.019484457
-0.0849728 -0.08694455 -0.075509295 0.023129856 0.035241127 -0.0942126 -0.038803454 -0.09661188

model.4.bias f4 [64]
00000000: 231c e9bc 6b05 843c 9cff 1fbd c9a7 91bd
00000010: 888d 1abc 32bb 273d c456 e53c 44c2 54bc
00000020: a880 df3c 572f 833d 28ab 95bc be5e 2d3c
00000030: bb7a 99bd 0834 2bbc dde6 50bd 61aa b73d
00000040: 1961 7d3c 6250 41bd 55d2 0fbc 8fa2 9d3d
00000050: 7f8d a83d 4dba 9dbc 73ec 5fbd 6a26 9cbc
00000060: 54fb 5c3d 653f 42bd 1b4b 9fbd 11ea 2abd
00000070: 0560 3a3d b56e 643d b336 20bd 3ccd 8c3d
00000080: 3163 9bbd 02d0 673d ca95 e9bc 079d aa3c
00000090: cc11 eebc 4cc1 893d 6ff5 6e3d 5095 af3c
000000a0: fdf3 d63d 42eb a8bd 8dde 123d 96fc 44bc
000000b0: eec0 3bbd 18b0 53bd f202 3bbd d359 f0bc
000000c0: aeca 8a3d c08c 173c 9391 843d 7e90 233d
000000d0: 0c8b 81bd 60c0 c93c 82de 2b3c 6ca3 99bd
000000e0: b5dc c13d 0c14 653c af5b 84bd 6abc 063d
000000f0: 8feb 523d e312 3dbd af5c 7c3d 97d5 29bd
-0.0284558 0.016115865 -0.039062127 -0.071120806 -0.009433158 0.040950008 0.027995475 -0.01298577
0.027283028 0.06405514 -0.01827009 0.01058167 -0.07494112 -0.010449417 -0.05100142 0.08968044
0.015465044 -0.0471958 -0.008778174 0.07697021 0.08230113 -0.019253874 -0.054668855 -0.019061286
0.053950623 -0.04742374 -0.07777997 -0.04172713 0.045501728 0.05576964 -0.039114665 0.06875083
-0.07587279 0.056594856 -0.028513808 0.02082683 -0.02906122 0.067263216 0.058339532 0.021433502
0.10495756 -0.08247997 0.035856772 -0.012023112 -0.04583829 -0.051681608 -0.045657106 -0.029339707
0.06776939 0.009249866 0.064730786 0.03993272 -0.06325349 0.024627864 0.010490062 -0.075018734
0.09465925 0.01398183 -0.064628 0.03289453 0.051494177 -0.04616059 0.061611827 -0.04146346

model.6.weight f4 [1, 64]
00000000: b301 d63d 91e7 8bbd 3504 dcbc 26bd 8fbd
00000010: 78d1 87bd f7be ca3d fa3b 52bd e9a0 f8bc
00000020: a061 75bd ccc9 df3d b0cf 053e a7bb de3d
00000030: f49e 8ebd c0f8 b2bb fe83 4dbc b475 d43d
00000040: 1423 34bd 8000 e1ba 978c ca3c 49ae d9bc
00000050: 68a0 88bc 4f35 bb3d 6ba6 4c3d bdcf c73d
00000060: 2066 6bbc 701f ef3d 6a7d a9bd 4cad aa3d
00000070: ebbf 993c ecea 153d 7840 c3bc f016 4d3d
00000080: f0c2 eebd c89c 9b3d b24f f0bd 5f6a 4cbd
00000090: 70d7 4d3c 068d fb3c 1c67 53bd a7cd d03d
000000a0: ee66 413d 087d d63c b3ea 8d3d f62b d73d
000000b0: 4036 14bc 99d9 eebc a50a e0bd 265d 0e3e
000000c0: b885 a73c 66de 80bd ab86 dbbd 3e79 a23d
000000d0: ce20 fbbd 805d a1bc f08c b13d d8d6 2b3d
000000e0: 9c5e c73d 8e61 6a3d 8544 a1bd 30dc dfbd
000000f0: 5e12 c2bc 1684 6e3d b7ba 92bc 5ed0 eebd
0.10449543 -0.06831277 -0.026857475 -0.07018499 -0.0663175 0.09899705 -0.05132673 -0.030350165
-0.059907556 0.109271616 0.13067508 0.108756356 -0.06963912 -0.005461782 -0.012543676 0.103740126
-0.043978766 -0.0017166287 0.024725242 -0.026572363 -0.01667805 0.09141027 0.049963396 0.0975642
-0.01436761 0.11675918 -0.08275874 0.08333835 0.018768271 0.036600992 -0.023834452 0.050070703
-0.11658275 0.07598263 -0.11733951 -0.04990613 0.012563571 0.030706894 -0.051612005 0.10195475
0.047217302 0.026182666 0.06929531 0.10506432 -0.009046137 -0.029156493 -0.1093953 0.13902721
0.020449504 -0.06292419 -0.10719045 0.07933281 -0.122621164 -0.019697905 0.0866946 0.041952938
0.09734842 0.05722194 -0.07874397 -0.10930669 -0.023690399 0.058231436 -0.017911298 -0.11660837

exp_avg f4 [64, 1]
00000000: 9cba fb3f e394 0cc2 0000 0000 0000 0000
00000010: 94df 1d42 0000 0000 c3c2 8340 0e0d 8540
00000020: d639 e541 0000 0000 30fc ff41 809f 51c2
00000030: 0000 0000 6825 4342 74f5 8242 c22e 55c1
00000040: 0e7e cf41 0000 0000 0037 bc40 d0d5 bfc1
00000050: 0000 0000 cb39 bd3f 1f31 1b40 74b5 09c2
00000060: b782 1c42 f9cf 16c2 1ca0 74c0 8f4d a0c1
00000070: 3dfd 1b42 36c4 1542 6b47 5e41 0000 0000
00000080: 1e11 1141 0000 0000 0000 0000 029c 37c2
00000090: b624 01c1 d873 b7c1 47a6 2ec1 62d3 2c41
000000a0: 0000 0000 91a6 9a41 708d 1a41 0000 0000
000000b0: 24d1 bac1 0000 0000 2776 6142 0000 0000
000000c0: 3361 9d41 62e0 99c1 0000 0000 4c00 cac0
000000d0: 5538 a742 4da6 2541 495f 53c0 0798 80c1
000000e0: c3cd 78c2 0000 0000 dae4 28c2 85f5 4842
000000f0: f6a7 ae42 c825 01c2 1986 7942 aa51 7dc0
1.9666324 -35.145397 0.0 0.0 39.468338 0.0 4.1175246 4.1578436
28.65324 0.0 31.998138 -52.40576 0.0 48.78653 65.4794 -13.3239155
25.93655 0.0 5.881714 -23.9794 0.0 1.4783262 2.424873 -34.4272
39.12765 -37.7031 -3.8222723 -20.03787 38.997303 37.441612 13.892436 0.0
9.066679 0.0 0.0 -45.90235 -8.071463 -22.931564 -10.915595 10.801607
0.0 19.331331 9.659531 0.0 -23.35212 0.0 56.365383 0.0
19.67246 -19.234562 0.0 -6.3125362 83.61002 10.353101 -3.3026907 -16.074232
-62.20094 0.0 -42.223488 50.239765 87.32805 -32.286896 62.380955 -3.9581094

exp_avg_sq f4 [64, 1]
00000000: 41a5 f93d c45f cd41 0000 0000 0000 0000
00000010: fb98 0042 0000 0000 af24 c740 c5ef 1c40
00000020: e4ee 8441 0000 0000 641d a241 d8c5 6142
00000030: 0000 0000 55c8 3f42 6a34 b442 b10f 7d40
00000040: 8cd5 6541 0000 0000 8aa2 9740 08fb 3141
00000050: 0000 0000 dce9 793d fc78 9d3f 4e0d e841
00000060: d933 f241 cfbb d941 6d04 1440 b9a1 f840
00000070: ede7 ee41 ca9e db41 8689 fc40 0000 0000
00000080: 55d4 ac40 0000 0000 0000 0000 108d 2b42
00000090: d3c3 9140 2859 3041 585d 2440 f586 aa40
000000a0: 0000 0000 366e ef40 a384 a340 0000 0000
000000b0: 9abe 2b41 0000 0000 b7a4 8242 0000 0000
000000c0: 6eeb 9041 5134 1341 0000 0000 c1e8 2240
000000d0: 55a3 1143 df88 3c40 cce4 cd3f 69d9 0c41
000000e0: 5ef1 9b42 0000 0000 3d91 1042 d9b1 4e42
000000f0: 67cb 2543 be42 c441 f1c7 b042 3ef8 3440
0.12189723 25.67176 0.0 0.0 32.149395 0.0 6.223228 2.4521344
16.616646 0.0 20.26435 56.443207 0.0 47.945637 90.10237 3.9540827
14.364635 0.0 4.738591 11.123787 0.0 0.06101404 1.2302547 29.006496
30.275316 27.216703 2.3127701 7.7697415 29.863245 27.452534 7.8917875 0.0
5.4009194 0.0 0.0 42.887756 4.5551543 11.021767 2.5681973 5.3289742
0.0 7.4822035 5.109941 0.0 10.734034 0.0 65.32171 0.0
18.114956 9.200273 0.0 2.5454562 145.63802 2.945854 1.6085448 8.803079
77.97142 0.0 36.141834 51.67368 165.79454 24.532589 88.39051 2.8276515

exp_avg f4 [64]
00000000: b2ac ffbf 2b3b 2ac3 0000 0000 0000 0000
00000010: 039b 80c2 0000 0000 d5c2 8dc3 fe0d 3ac3
00000020: a87e 1ac3 0000 0000 60e1 a1c2 ba9e 45c3
00000030: 0000 0000 db5f a4c2 2938 7ec3 0d02 bbc1
00000040: cde5 fdc1 0000 0000 6228 8241 ab32 25c2
00000050: 0000 0000 ba41 c5bf 5924 f9c2 b8af 50c3
00000060: 0683 70c2 f81c 67c2 5e1c 48c3 af79 51c2
00000070: 35bf cac2 c57d aec2 8564 8dc3 0000 0000
00000080: 914a 29c3 0000 0000 0000 0000 4a92 7bc2
00000090: 127e 94c3 8e95 ccc1 91a1 5ec1 a239 47c3
000000a0: 0000 0000 abf8 b5c2 0107 64c3 0000 0000
000000b0: 72aa dec1 0000 0000 9e51 7bc3 0000 0000
000000c0: 131b dac3 5d46 e7c2 0000 0000 370b 44c2
000000d0: a2a8 eec2 9730 49c1 02f2 34c3 0036 89c3
000000e0: d713 f5c2 0000 0000 38ea 9fc2 6baa 11c3
000000f0: 1d5b 42c3 15bc 45c3 e161 81c3 8cb1 68c3
-1.9974577 -170.23112 0.0 0.0 -64.30276 0.0 -283.52213 -186.05466
-154.49475 0.0 -80.940186 -197.62003 0.0 -82.18722 -254.21938 -23.376001
-31.737207 0.0 16.269718 -41.29948 0.0 -1.5410683 -124.57099 -208.6864
-60.127953 -57.77829 -200.11081 -52.36883 -101.37345 -87.24564 -282.7853 0.0
-169.29128 0.0 0.0 -62.89286 -296.98492 -25.573025 -13.914445 -199.22513
0.0 -90.98568 -228.02736 0.0 -27.833225 0.0 -251.31882 0.0
-436.21152 -115.63743 0.0 -49.010952 -119.32936 -12.574363 -180.94534 -274.42188
-122.53875 0.0 -79.95746 -145.6657 -194.35591 -197.7347 -258.76468 -232.69354

exp_avg_sq f4 [64]
00000000: fac3 003e b73b 0e44 0000 0000 0000 0000
00000010: 2165 aa42 0000 0000 fd27 d144 12fd 2c44
00000020: 981b e943 0000 0000 98b2 0043 0142 4344
00000030: 0000 0000 0852 0843 18f3 a544 01cd 6641
00000040: e2fe aa41 0000 0000 6ca9 ff41 1ccd 0442
00000050: 0000 0000 a025 883d 0009 9543 aead 5844
00000060: 3bad 8f42 9a98 7f42 54bf 4144 1aa7 5842
00000070: e642 4743 623a 1443 9b25 c844 0000 0000
00000080: 24bb 0d44 0000 0000 0000 0000 6782 a042
00000090: ab7f df44 46f6 5a41 40e7 8640 4cfe 4644
000000a0: 0000 0000 68ff 2043 5a55 8344 0000 0000
000000b0: 5069 7441 0000 0000 0978 9e44 0000 0000
000000c0: b84a 7c45 a405 8943 0000 0000 4017 6842
000000d0: 1877 9243 d0bb 8c40 39cf 1e44 10c7 bc44
000000e0: 37d1 9443 0000 0000 6b3b 0143 9858 d643
000000f0: a9b7 4944 aa08 4344 229d b144 87d8 8a44
0.12574759 568.93304 0.0 0.0 85.19752 0.0 1673.2496 691.9542
466.21558 0.0 128.69763 781.0313 0.0 136.32043 1327.5967 14.42505
21.374454 0.0 31.957726 33.200302 0.0 0.066478014 298.0703 866.71375
71.83834 63.899025 774.9895 54.163185 199.26132 148.22806 1601.1752 0.0
566.9241 0.0 0.0 80.25469 1787.9896 13.685125 4.2157288 795.9734
0.0 160.99768 1050.6672 0.0 15.275711 0.0 1267.7511 0.0
4036.67 274.04407 0.0 58.022705 292.93042 4.3979263 635.23785 1510.2207
297.6345 0.0 129.2321 428.69214 806.8697 780.1354 1420.9104 1110.7665

exp_avg f4 [128, 64]
00000000: 0000 0000 0000 0000 0000 0000 0000 0000
00000010: 0000 0000 0000 0000 0000 0000 0000 0000
00000020: 0000 0000 0000 0000 0000 0000 0000 0000
00000030: 0000 0000 0000 0000 0000 0000 0000 0000
00000040: 0000 0000 0000 0000 0000 0000 0000 0000
00000050: 0000 0000 0000 0000 0000 0000 0000 0000
00000060: 0000 0000 0000 0000 0000 0000 0000 0000
00000070: 0000 0000 0000 0000 0000 0000 0000 0000
00000080: 0000 0000 0000 0000 0000 0000 0000 0000
00000090: 0000 0000 0000 0000 0000 0000 0000 0000
000000a0: 0000 0000 0000 0000 0000 0000 0000 0000
000000b0: 0000 0000 0000 0000 0000 0000 0000 0000
000000c0: 0000 0000 0000 0000 0000 0000 0000 0000
000000d0: 0000 0000 0000 0000 0000 0000 0000 0000
000000e0: 0000 0000 0000 0000 0000 0000 0000 0000
000000f0: 0000 0000 0000 0000 0000 0000 0000 0000
00000100: 99d8 2ebc 53ef 14c2 0000 0000 0000 0000
00000110: abbc 04c1 0000 0000 2e6e 4bc2 f735 dbc1
00000120: fb7c d7c1 0000 0000 ec2e 59c1 0696 f2c1
00000130: 0000 0000 0f93 8ec0 f7b9 14c2 74c0 44c1
00000140: dd61 72bf 0000 0000 9936 71c0 aa85 e5c0
00000150: 0000 0000 3562 b2bd ac7f 2bc2 4bd6 23c2
00000160: 22dc f3c0 ce13 69c0 729f fdc1 6ed3 cec1
00000170: f8e9 28c1 c9e5 95c1 8dca 72c2 0000 0000
00000180: 8d15 3fc2 0000 0000 0000 0000 3fa4 08c0
00000190: 0067 51c2 1bfd 0ebf 09c6 40c0 8777 41c2
000001a0: 0000 0000 0e7f 07c2 45e5 50c2 0000 0000
000001b0: 8603 1ebf 0000 0000 55e2 08c2 0000 0000
000001c0: eb41 65c2 5709 35c0 0000 0000 bb16 54c2
000001d0: af6e 92bf 721d 52bf eb65 26c2 d22a 65c2
000001e0: 936b 82c1 0000 0000 7e8d 35c1 62dc cac1
000001f0: 4533 1dc1 d942 0cc2 aff4 11c2 db32 1cc2
00000200: 00aa cfbc b7dd c3c2 0000 0000 0000 0000
00000210: 91e6 a6c1 0000 0000 4915 03c3 08b3 8bc2
00000220: 738e 88c2 0000 0000 7e1e 09c2 bcc8 9fc2
00000230: 0000 0000 c19b 32c1 d46a bcc2 e229 03c2
00000240: 1d9c 16c0 0000 0000 d9d5 22c1 6ed5 98c1
00000250: 0000 0000 1244 63be 5c09 dbc2 58f4 d6c2
00000260: 8e36 99c1 13bf 1ac1 95a7 a3c2 07a7 88c2
00000270: bbd4 d4c1 fd39 3dc2 cb2a 1bc3 0000 0000
00000280: 8076 f5c2 0000 0000 0000 0000 cd37 b5c0
00000290: 7703 07c3 84cf bfbf c9fe 01c1 c403 f8c2
000002a0: 0000 0000 23d5 abc2 d6a3 05c3 0000 0000
000002b0: 7463 cfbf 0000 0000 9c6d adc2 0000 0000
000002c0: a363 12c3 af86 e8c0 0000 0000 c59d 08c3
000002d0: a168 34c0 42e7 04c0 7578 d5c2 1d15 15c3
000002e0: 005a 2dc2 0000 0000 7214 f1c1 403a 80c2
000002f0: cbff c5c1 d4f5 b7c2 ddf2 b8c2 1d71 c9c2
00000300: ccab 9ebc eec3 63c1 0000 0000 0000 0000
00000310: 533a 77c1 0000 0000 9a40 5bc2 9471 1ac2
00000320: 9964 2ec2 0000 0000 4c9c c4c1 630a 16c1
00000330: 0000 0000 ae98 04c1 0691 78c2 a650 20bf
00000340: 329d e1bf 0000 0000 025a 47be 3e08 febc
00000350: 0000 0000 11e6 28be 2bf2 69c2 90b2 98c1
00000360: 264d 63c1 0000 0000 1454 fdc1 c622 b7c0
00000370: 1327 99c1 f46d 09c2 51b2 a4c2 0000 0000
00000380: f714 62c2 0000 0000 0000 0000 0000 0000
00000390: cee9 5cc2 0000 0000 0000 0000 1e0c 72c2
000003a0: 0000 0000 def5 5dc2 139c 89c2 0000 0000
000003b0: 0000 0000 0000 0000 1d4d 63c2 0000 0000
000003c0: c8b3 9ec2 a637 9abf 0000 0000 d315 6fc2
000003d0: 7b74 07c0 57e1 c4bf 6e4c 4ac2 ad91 2dc2
000003e0: e526 45bf 0000 0000 013f e8be 2852 33c2
000003f0: 7fa8 90c1 b65e 82c1 b910 72c2 cae4 21c2
0.0 0.0 0.0 0.0 0.0 0.0 0.0 0.0
0.0 0.0 0.0 0.0 0.0 0.0 0.0 0.0
0.0 0.0 0.0 0.0 0.0 0.0 0.0 0.0
0.0 0.0 0.0 0.0 0.0 0.0 0.0 0.0
0.0 0.0 0.0 0.0 0.0 0.0 0.0 0.0
0.0 0.0 0.0 0.0 0.0 0.0 0.0 0.0
0.0 0.0 0.0 0.0 0.0 0.0 0.0 0.0
0.0 0.0 0.0 0.0 0.0 0.0 0.0 0.0
-0.010671758 -37.233715 0.0 0.0 -8.2960615 0.0 -50.857597 -27.40135
-26.936026 0.0 -13.573956 -30.323254 0.0 -4.4554515 -37.181606 -12.296986
-0.9468058 0.0 -3.7689574 -7.1725664 0.0 -0.08710138 -42.87468 -40.95927
-7.6206217 -3.6418338 -31.702854 -25.853237 -10.557121 -18.7372 -60.697803 0.0
-47.771046 0.0 0.0 -2.1350248 -52.350586 -0.5585496 -3.012087 -48.366726
0.0 -33.874077 -52.223896 0.0 -0.61724126 0.0 -34.221027 0.0
-57.314373 -2.828695 0.0 -53.022198 -1.1440028 -0.8207618 -41.59953 -57.291817
-16.302526 0.0 -11.347044 -25.357609 -9.825017 -35.06528 -36.48895 -39.049664
-0.025349617 -97.93304 0.0 0.0 -20.862581 0.0 -131.08315 -69.84967
-68.27822 0.0 -34.279778 -79.89206 0.0 -11.163026 -94.20865 -32.7909
-2.3532784 0.0 -10.177209 -19.104214 0.0 -0.22193936 -109.51828 -107.477234
-19.151638 -9.671649 -81.82731 -68.326225 -26.603872 -47.30663 -155.16716 0.0
-122.731445 0.0 0.0 -5.6630616 -135.01353 -1.4985204 -8.124703 -124.007355
0.0 -85.91628 -133.63998 0.0 -1.6202226 0.0 -86.71408 0.0
-146.3892 -7.266441 0.0 -136.61629 -2.818886 -2.0766149 -106.73527 -149.08247
-43.33789 0.0 -30.134983 -64.11377 -24.749899 -91.98013 -92.47434 -100.720924
-0.019369029 -14.235334 0.0 0.0 -15.451739 0.0 -54.813087 -38.610916
-43.59824 0.0 -24.576317 -9.377536 0.0 -8.287275 -62.141624 -0.6262306
-1.7626097 0.0 -0.19467929 -0.03100979 0.0 -0.16494013 -58.486492 -19.087189
-14.206335 0.0 -31.666054 -5.722995 -19.14408 -34.357376 -82.348274 0.0
-56.520473 0.0 0.0 0.0 -55.228325 0.0 0.0 -60.511833
0.0 -55.490105 -68.80483 0.0 0.0 0.0 -56.825306 0.0
-79.351135 -1.2048233 0.0 -59.771313 -2.1164844 -1.5381268 -50.57464 -43.39226
-0.77012473 0.0 -0.45360568 -44.83023 -18.082273 -16.296246 -60.51633 -40.473427

exp_avg_sq f4 [128, 64]
00000000: 0000 0000 0000 0000 0000 0000 0000 0000
00000010: 0000 0000 0000 0000 0000 0000 0000 0000
00000020: 0000 0000 0000 0000 0000 0000 0000 0000
00000030: 0000 0000 0000 0000 0000 0000 0000 0000
00000040: 0000 0000 0000 0000 0000 0000 0000 0000
00000050: 0000 0000 0000 0000 0000 0000 0000 0000
00000060: 0000 0000 0000 0000 0000 0000 0000 0000
00000070: 0000 0000 0000 0000 0000 0000 0000 0000
00000080: 0000 0000 0000 0000 0000 0000 0000 0000
00000090: 0000 0000 0000 0000 0000 0000 0000 0000
000000a0: 0000 0000 0000 0000 0000 0000 0000 0000
000000b0: 0000 0000 0000 0000 0000 0000 0000 0000
000000c0: 0000 0000 0000 0000 0000 0000 0000 0000
000000d0: 0000 0000 0000 0000 0000 0000 0000 0000
000000e0: 0000 0000 0000 0000 0000 0000 0000 0000
000000f0: 0000 0000 0000 0000 0000 0000 0000 0000
00000100: 2b39 7b36 5a7a d741 0000 0000 0000 0000
00000110: 65b4 c83f 0000 0000 cf9e 4b42 f823 7441
00000120: a52e 7341 0000 0000 ed61 8140 235d 8f41
00000130: 0000 0000 8409 e03e 6647 ea41 ac20 4040
00000140: 6ee8 9c3c 0000 0000 9c9e 903e 6be4 833f
00000150: 0000 0000 2750 6539 150f 1542 2b08 0242
00000160: 3a39 a93f 2100 893e 4f57 9d41 c954 5141
00000170: e5e5 1940 b9ab f740 3f41 9542 0000 0000
00000180: f13e 3542 0000 0000 0000 0000 e34b be3d
00000190: 6c76 5742 c795 d93b a1a9 3e3e 8e21 3b42
000001a0: 0000 0000 5d1b c241 f5d4 5b42 0000 0000
000001b0: 4b1b 023c 0000 0000 8517 c641 0000 0000
000001c0: a781 8542 35b4 1e3e 0000 0000 a1e6 5e42
000001d0: 0ee1 da3c 2f10 923c 26df 0942 3056 7e42
000001e0: 30fd a840 0000 0000 d9e5 2340 85c6 5d41
000001f0: 96fc 0640 a798 be41 3314 e141 086f ef41
00000200: 65fc b437 9908 5c43 0000 0000 0000 0000
00000210: d260 3441 0000 0000 a119 d243 2c89 f642
00000220: 85d7 f142 0000 0000 ae83 f941 973e 1143
00000230: 0000 0000 2b9f 4640 b371 6843 c9b1 c141
00000240: 1194 043e 0000 0000 99c9 1b40 6191 0041
00000250: 0000 0000 03ee ca3a 39aa 9743 667c 8543
00000260: 2316 1741 27e8 0040 e2e2 2143 1c7b d342
00000270: cd03 9241 4c2a 6c42 bb70 1844 0000 0000
00000280: e342 ba43 0000 0000 0000 0000 f08a 2e3f
00000290: 6f73 de43 bfcc 463d 2afa b93f a8c6 bf43
000002a0: 0000 0000 b93d 4243 26b9 e043 0000 0000
000002b0: 8ff1 5e3d 0000 0000 33b2 4443 0000 0000
000002c0: 9914 0844 3f4e 8f3f 0000 0000 b1e9 e743
000002d0: 543c 333e c3f8 003e d847 8d43 bbb6 0344
000002e0: 6c1f 2742 0000 0000 8ac9 a041 aa27 d842
000002f0: 552e 7d41 0715 4343 f6a6 5f43 67b4 7643
00000300: eb62 5137 13fb 7d40 0000 0000 0000 0000
00000310: 9ebf a440 0000 0000 9c68 7042 73a0 f141
00000320: c748 1b42 0000 0000 0810 4941 dcc1 dd3f
00000330: 0000 0000 5fa4 ba3f c675 9e42 d59a 3c3c
00000340: bf84 883d 0000 0000 f8e7 8b3a f82b 4d38
00000350: 0000 0000 0830 4a3a 6bab 8a42 4fb8 e340
00000360: 7b00 8c40 0000 0000 17c6 9f41 f5ac 293f
00000370: 86d1 f240 da1b c641 6c70 0943 0000 0000
00000380: 1f68 8042 0000 0000 0000 0000 0000 0000
00000390: 90ed 7342 0000 0000 0000 0000 59ad 9342
000003a0: 0000 0000 8e53 7c42 d687 bf42 0000 0000
000003b0: 0000 0000 0000 0000 ec5f 8442 0000 0000
000003c0: 1379 ff42 f25f e83c 0000 0000 ddab 8f42
000003d0: 4f82 bb3d 8de2 6b3d a907 4e42 2411 1442
000003e0: f676 923c 0000 0000 314d d73b 2827 2642
000003f0: 8f15 db40 3bfe a540 d924 9642 d0d8 0242
0.0 0.0 0.0 0.0 0.0 0.0 0.0 0.0
0.0 0.0 0.0 0.0 0.0 0.0 0.0 0.0
0.0 0.0 0.0 0.0 0.0 0.0 0.0 0.0
0.0 0.0 0.0 0.0 0.0 0.0 0.0 0.0
0.0 0.0 0.0 0.0 0.0 0.0 0.0 0.0
0.0 0.0 0.0 0.0 0.0 0.0 0.0 0.0
0.0 0.0 0.0 0.0 0.0 0.0 0.0 0.0
0.0 0.0 0.0 0.0 0.0 0.0 0.0 0.0
3.743519e-06 26.934742 0.0 0.0 1.5680052 0.0 50.905087 15.258781
15.198888 0.0 4.043204 17.920477 0.0 0.4375726 29.284863 3.0019941
0.0191538 0.0 0.2824601 1.0304083 0.0 0.00021869001 37.26473 32.507977
1.3220589 0.2675791 19.667631 13.0831995 2.4046566 7.739712 74.62743 0.0
45.311466 0.0 0.0 0.09291818 53.865646 0.0066401693 0.18619396 46.78277
0.0 24.263361 54.957966 0.0 0.007941077 0.0 24.761484 0.0
66.75323 0.15498431 0.0 55.725224 0.026718643 0.017829983 34.46792 63.584167
5.2809067 0.0 2.5609038 13.860967 2.1091666 23.824537 28.134863 29.929214
2.1575202e-05 220.03358 0.0 0.0 11.273638 0.0 420.20023 123.267914
120.92094 0.0 31.189297 145.24449 0.0 3.1034648 232.44414 24.21181
0.12947108 0.0 2.4341795 8.035493 0.0 0.001548231 303.32986 266.97186
9.442904 2.0141695 161.88626 105.74045 18.251856 59.041306 609.7614 0.0
372.52255 0.0 0.0 0.6818075 444.90182 0.048535105 1.4529469 383.552
0.0 194.2411 449.44647 0.0 0.054429587 0.0 196.69609 0.0
544.32184 1.1195754 0.0 463.8257 0.17503482 0.12594895 282.56128 526.85516
41.780685 0.0 20.098408 108.07747 15.823812 195.08214 223.65219 246.7047
1.2480402e-05 3.9684494 0.0 0.0 5.148391 0.0 60.102158 30.203344
38.82107 0.0 12.566414 1.7324786 0.0 1.4581412 79.23003 0.011511524
0.06665944 0.0 0.001067399 4.8916758e-05 0.0 0.00077128457 69.3348 7.1162486
4.3750587 0.0 19.971724 0.66279536 7.5880766 24.7636 137.43915 0.0
64.20336 0.0 0.0 0.0 60.981995 0.0 0.0 73.83857
0.0 63.081596 95.765305 0.0 0.0 0.0 66.18735 0.0
127.73647 0.028366063 0.0 71.83567 0.09155714 0.057589103 51.50748 37.01674
0.01787899 0.0 0.006570481 41.53824 6.8463817 5.187284 75.07197 32.71173

exp_avg f4 [128]
00000000: 0000 0000 1c87 74c2 dfe7 1dc3 a31a 80c2
00000010: 4b76 3bc3 368d 27c3 3c96 03c3 cb71 cac2
00000020: 4561 aac2 0000 0000 0000 0000 c387 a73b
00000030: d203 39c3 ea32 0cc3 0615 0dc2 9033 d9c2
00000040: 0000 0000 6139 0a3c 9806 50c3 41f5 e6c2
00000050: 1c41 9fc2 697b 09c3 0000 0000 ce62 cbc2
00000060: 960a 77c3 0000 0000 0000 0000 b8fc 4ec1
00000070: af8e a5c2 f2fa 72c2 17b6 4bc2 fd5f 33c3
00000080: 3bc0 1841 f9b1 3ac3 0000 0000 0000 0000
00000090: 0000 0000 d877 54c3 dee7 fbc2 eea4 cac1
000000a0: 4747 96c2 c740 1ec2 be35 133e 2b10 74c3
000000b0: 43e2 cec2 f776 4841 755f eac2 bc50 18c3
000000c0: ba3a 1ac3 0558 b7c2 4322 863f e874 563e
000000d0: 5ec9 f8c2 0000 0000 0000 0000 a308 ddc2
000000e0: 6f4f 4dc2 60a3 0fc3 0000 0000 a9bf 86c2
000000f0: 6205 1bc3 9383 6340 f7f9 18c3 0000 0000
00000100: 99f0 dcc2 01dd dfc2 ce48 2ac3 6200 4fc3
00000110: 0000 0000 7c92 07c3 42d7 853e 0000 0000
00000120: 0000 0000 8487 5cc2 c362 ec3e 680b 27c3
00000130: 39e8 44c3 bb4b c6c2 0000 0000 0000 0000
00000140: 0c8d dcc2 390a b13f 0000 0000 0000 0000
00000150: ddbb d5c2 0000 0000 3fa2 76c3 80b5 883c
00000160: 3988 3bc3 0000 0000 6f94 1840 65d2 3fc2
00000170: 0000 0000 41c8 f0c2 0000 0000 5b58 5ec1
00000180: 0000 0000 6e7e 83c0 af2a e7c0 975e 12c3
00000190: 2500 24c3 94a7 c8c2 0000 0000 3511 4ac2
000001a0: 5e39 43c1 e69b c13d 0000 0000 b4f5 efc2
000001b0: a45e eec2 0000 0000 0000 0000 813d 68c3
000001c0: 2787 9e3e 7b96 4ec3 8f0b 45c3 9e2c 25c3
000001d0: 2eac 0cc2 0000 0000 b7ff 20c3 e7d5 c63e
000001e0: afb4 56c2 a792 15c3 0000 0000 5515 02c3
000001f0: 0000 0000 81cd a9c2 558f 02c3 2bd4 bdc2
0.0 -61.131943 -157.90575 -64.052025 -187.46208 -167.5516 -131.58685 -101.22225
-85.18998 0.0 0.0 0.0051126196 -185.01492 -140.19888 -35.27053 -108.60071
0.0 0.008436532 -208.02576 -115.47901 -79.62717 -137.48207 0.0 -101.69298
-247.04135 0.0 0.0 -12.936699 -82.77868 -60.745064 -50.927822 -179.37495
9.546931 -186.6952 0.0 0.0 0.0 -212.46814 -125.952866 -25.330532
-75.13921 -39.56326 0.1437597 -244.06316 -103.44192 12.529044 -117.18644 -152.31537
-154.2294 -91.67191 1.0479206 0.20943034 -124.393295 0.0 0.0 -110.51687
-51.32757 -143.63818 0.0 -67.37434 -155.02103 3.5549057 -152.97643 0.0
-110.46992 -111.93165 -170.2844 -207.0015 0.0 -135.5722 0.2614079 0.0
0.0 -55.13234 0.461691 -167.04456 -196.90712 -99.14791 0.0 0.0
-110.27548 1.3831245 0.0 0.0 -106.86692 0.0 -246.63377 0.016688108
-187.53212 0.0 2.3840597 -47.955463 0.0 -120.39112 0.0 -13.896571
0.0 -4.1091833 -7.2239604 -146.36949 -164.00056 -100.3273 0.0 -50.516804
-12.201506 0.094535634 0.0 -119.97989 -119.184845 0.0 0.0 -232.24025
0.30962488 -206.58781 -197.04515 -165.17429 -35.168144 0.0 -160.99889 0.3883507
-53.67645 -149.57286 0.0 -130.08333 0.0 -84.901375 -130.55989 -94.91439

exp_avg_sq f4 [128]
00000000: 0000 0000 d211 9342 852a 1944 7843 a442
00000010: d5e6 5644 9b73 2844 ad33 b843 ffdf 5743
00000020: 8acc 1543 0000 0000 0000 0000 1f52 c13b
00000030: 54a0 4944 6d5a de43 0bc8 dd41 fd15 6843
00000040: 0000 0000 7e1d 213c 948e 8244 0fa2 9143
00000050: 31ec 0343 a099 d443 0000 0000 d167 5843
00000060: 608e ce44 0000 0000 0000 0000 2ae7 8840
00000070: d8e2 0443 4a43 9d42 0766 4842 26c1 3c44
00000080: 6f78 fd41 3efb 4144 0000 0000 0000 0000
00000090: 0000 0000 2e40 9044 cac5 b343 337b 4e41
000000a0: 5669 e542 e09b f341 c2e0 2b3e e98f b944
000000b0: 7692 6043 247a 2343 2281 9843 2384 0244
000000c0: 916c 0344 46f4 2b43 cfae b73f 4b52 8a3f
000000d0: 68e2 a943 0000 0000 0000 0000 416a 8443
000000e0: 89c0 5442 7874 e343 0000 0000 8ed1 b842
000000f0: 8de2 0b44 3f70 f240 9a2a 0744 0000 0000
00000100: bbf4 6e43 861e 8143 ee78 2a44 8d0b 8e44
00000110: 0000 0000 86e7 d343 2ba1 0040 0000 0000
00000120: 0000 0000 0477 6942 8111 3340 ebcb 1c44
00000130: be0f 6644 8dd6 4143 0000 0000 0000 0000
00000140: 0ba1 7343 f3f0 0841 0000 0000 0000 0000
00000150: 57e1 6343 0000 0000 5005 c244 a8ed 3d3d
00000160: 1e34 5744 0000 0000 f337 6e41 4217 3842
00000170: 0000 0000 cbdf 9e43 0000 0000 46b4 9340
00000180: 0000 0000 b19c c841 0cd0 5d42 87e1 ea43
00000190: d717 1e44 e669 5743 0000 0000 018c 6542
000001a0: 258b 6d40 803e 133e 0000 0000 3933 9a43
000001b0: be2f 9843 0000 0000 0000 0000 e262 a644
000001c0: 86ac 693f b579 7044 d23a 6244 9f96 3844
000001d0: c0ca 5242 0000 0000 7fc7 1944 0557 1a40
000001e0: d6ea 7242 a7c4 f743 0000 0000 1279 cb43
000001f0: 0000 0000 713d 1243 d4c2 bb43 0639 3243
0.0 73.534805 612.66437 82.131775 859.60675 673.80634 368.40372 215.87498
149.79898 0.0 0.0 0.005899682 806.5051 444.70645 27.722677 232.08589
0.0 0.009833692 1044.4556 291.26608 131.92262 425.2002 0.0 216.40553
1652.4492 0.0 0.0 4.2782183 132.88611 78.631424 50.099636 755.01794
31.683805 775.92566 0.0 0.0 0.0 1154.0056 359.54523 12.905078
114.705734 30.45111 0.16784957 1484.4972 224.57211 163.47711 305.00885 522.06464
525.69635 171.9542 1.4350222 1.0806364 339.7688 0.0 0.0 264.8301
53.188023 454.9099 0.0 92.40929 559.53986 7.576202 540.66565 0.0
238.95598 258.23846 681.8895 1136.361 0.0 423.80878 2.009837 0.0
0.0 58.366226 2.7979434 627.1862 920.246 193.83809 0.0 0.0
243.62907 8.5588255 0.0 0.0 227.88023 0.0 1552.166 0.046369225
860.81433 0.0 14.8886595 46.022713 0.0 317.74838 0.0 4.615756
0.0 25.07651 55.45317 469.76193 632.3725 215.41367 0.0 57.386723
3.7116177 0.1437931 0.0 308.40018 304.373 0.0 0.0 1331.0901
0.91278875 961.9017 904.91907 738.35345 52.697998 0.0 615.1171 2.4115613
60.729332 495.53635 0.0 406.94586 0.0 146.24 375.5221 178.22275

exp_avg f4 [64, 128]
00000000: 0000 0000 0c55 7ec2 0e77 2bc3 c5ae 1ec2
00000010: 3a57 eec2 b051 02c3 1e3d bdc2 f5b2 b0c2
00000020: 9599 78c2 0000 0000 0000 0000 0000 0000
00000030: 5110 33c3 3d28 6ec2 3c10 48c2 95e6 53c2
00000040: 0000 0000 0018 0ab4 d282 3ec3 76c6 06c3
00000050: 7660 abc2 c709 47c3 0000 0000 a33c 4ac3
00000060: 766b 48c3 0000 0000 0000 0000 52a7 84c0
00000070: ca18 8ac2 554c 87c2 76ec 06c2 1fdc 47c3
00000080: 5e90 24c2 2d33 8dc2 0000 0000 0000 0000
00000090: 0000 0000 7b2d 14c3 8281 2bc3 d25a b6c1
000000a0: a593 5cc3 0c6a 62c2 7749 00bd f553 26c3
000000b0: 9ca5 bdc2 5b44 2fbf 0836 1fc3 5cbb 36c3
000000c0: 4882 56c3 f00e 53c3 ea47 cbbe 0000 0000
000000d0: 5a25 ebc2 0000 0000 0000 0000 92af cec2
000000e0: 9de7 38c2 14b4 b6c2 0000 0000 ddbd cec2
000000f0: 2fd8 31c3 f44d dbbe 4c33 29c3 0000 0000
00000100: 6916 7dc2 05c8 acc2 65fe 1dc3 31cd 64c3
00000110: 0000 0000 31d6 06c3 0000 0000 0000 0000
00000120: 0000 0000 559a 7bc2 0000 0000 d281 fec2
00000130: c32a bec2 c500 96c2 0000 0000 0000 0000
00000140: 5c5c 72c2 0384 57be 0000 0000 0000 0000
00000150: 137c 71c2 0000 0000 f9ba 05c3 0000 0000
00000160: f28c 0fc3 0000 0000 9bd0 95be c142 40c2
00000170: 0000 0000 4d1f d2c2 0000 0000 e59d 10c1
00000180: 0000 0000 2d15 5fc0 6a66 0fc2 7eba b5c2
00000190: 8fa8 61c3 4db4 cdc2 0000 0000 c3b9 2ac1
000001a0: 0b70 44c1 ba24 dbbc 0000 0000 a014 fbc2
000001b0: 24c1 bcc2 0000 0000 0000 0000 3295 06c3
000001c0: 0000 0000 ecc7 16c3 0ad5 aac2 4f0d 01c3
000001d0: ebc6 44c2 0000 0000 e00e 2fc3 0000 0000
000001e0: 244f 29c2 e147 5bc3 0000 0000 f095 d3c2
000001f0: 0000 0000 e39c b7c2 6c07 16c3 5cf1 56c2
00000200: 0000 0000 762b aa3e c321 af3f f8c8 b23d
00000210: d619 293f 188f 9d3f 15f5 573f 46a7 eb3a
00000220: 1509 ae3e 0000 0000 0000 0000 183c 3739
00000230: 8986 2c40 554c d73e dc21 703d 937f a73e
00000240: 0000 0000 0000 0000 2179 c33f 0a09 d93e
00000250: 9aba 1a3d d02c e23f 0000 0000 bb1a 2040
00000260: f387 4140 0000 0000 0000 0000 0000 0000
00000270: a1f3 013f 6f19 563f 0000 0000 42ec f23f
00000280: 8344 963f 7900 223e 0000 0000 0000 0000
00000290: 0000 0000 b323 fd3f 0f2a 0840 0000 0000
000002a0: 54f7 1840 104c 2a3f 0000 0000 7364 123f
000002b0: bb04 b93b e860 3a3f 9862 873f 491f 9a3f
000002c0: 2d39 2540 c8d9 f43f e47c 193f 64ea 113d
000002d0: 8f11 c73e 0000 0000 0000 0000 5417 433f
000002e0: ebe3 8d3e 9e8a 283f 0000 0000 48e2 153f
000002f0: 572e 1840 eb32 0a3f ed00 f93f 0000 0000
00000300: 0000 0000 0000 0000 9b46 8b3f d4dc 2540
00000310: 0000 0000 34e6 d13f d651 393d 0000 0000
00000320: 0000 0000 4520 6339 2ce5 be3d 7ee9 263e
00000330: 6f9d 103d 036b 363f 0000 0000 0000 0000
00000340: 0000 0000 4987 5339 0000 0000 0000 0000
00000350: 43a3 003d 0000 0000 15c7 9f3f b2c8 1c3a
00000360: 9ba4 9c3f 0000 0000 f7b2 4c3d abf7 0c3f
00000370: 0000 0000 876f 6e3e 0000 0000 8f45 7a3e
00000380: 0000 0000 0762 253f 2cc9 b53f 7002 a73e
00000390: 53f0 6c40 a5b3 923f 0000 0000 48be d03d
000003a0: 0000 0000 0000 0000 0000 0000 5f81 bb3f
000003b0: 3540 3d3f 0000 0000 0000 0000 da2c 963f
000003c0: 66ce da3d e72a 0b40 0930 793b 2189 b03f
000003d0: c109 923f 0000 0000 be86 c23f 5763 4d3d
000003e0: 8400 eb3a 9b56 1940 0000 0000 946d 053f
000003f0: 0000 0000 ec01 173f 635b 753f f343 093e
0.0 -63.583054 -171.46506 -39.670673 -119.170364 -130.31909 -94.61937 -88.349525
-62.149982 0.0 0.0 0.0 -179.06374 -59.539295 -50.015854 -52.975178
0.0 -1.2860983e-07 -190.51102 -134.77524 -85.6884 -199.0382 0.0 -202.23686
-200.41977 0.0 0.0 -4.145425 -69.048416 -67.649086 -33.73092 -199.85985
-41.140984 -70.59995 0.0 0.0 0.0 -148.17766 -171.50589 -22.794346
-220.57674 -56.60356 -0.03132006 -166.32796 -94.823456 -0.6846368 -159.21106 -182.73187
-214.50891 -211.05835 -0.39703304 0.0 -117.57295 0.0 0.0 -103.34291
-46.226185 -91.351715 0.0 -103.37083 -177.84447 -0.4283291 -169.20038 0.0
-63.271885 -86.39066 -157.99373 -228.80153 0.0 -134.83669 0.0 0.0
0.0 -62.900715 0.0 -127.253555 -95.08352 -75.0015 0.0 0.0
-60.590195 -0.21046452 0.0 0.0 -60.371166 0.0 -133.73036 0.0
-143.55057 0.0 -0.29260716 -48.06519 0.0 -105.061134 0.0 -9.038548
0.0 -3.4856675 -35.850014 -90.86424 -225.65843 -102.85215 0.0 -10.670352
-12.277354 -0.026750911 0.0 -125.54028 -94.37723 0.0 0.0 -134.5828
0.0 -150.78094 -85.41609 -129.05199 -49.194256 0.0 -175.0581 0.0
-42.327286 -219.28078 0.0 -105.79285 0.0 -91.80642 -150.02899 -53.735703
0.0 0.33236283 1.3682178 0.08729738 0.6605505 1.2309294 0.8435834 0.0017978929
0.33991304 0.0 0.0 0.00017474627 2.6957114 0.42050424 0.05862604 0.3271452
0.0 0.0 1.5271341 0.4238971 0.037775613 1.7669926 0.0 2.5016315
3.0239227 0.0 0.0 0.0 0.50762373 0.8363256 0.0 1.897835
1.1739658 0.15820493 0.0 0.0 0.0 1.977652 2.127567 0.0
2.3900957 0.6652231 0.0 0.57184523 0.005646316 0.7280412 1.0576963 1.2040797
2.5816147 1.9128962 0.5995619 0.035623923 0.38880584 0.0 0.0 0.7620747
0.2771295 0.65836513 0.0 0.585484 2.3778284 0.53983945 1.9453408 0.0
0.0 0.0 1.0880922 2.5916033 0.0 1.6398377 0.04524406 0.0
0.0 0.00021660428 0.09321055 0.16300008 0.03530639 0.71257037 0.0 0.0
0.0 0.00020172926 0.0 0.0 0.0314057 0.0 1.248263 0.00059808337
1.2237734 0.0 0.04997536 0.5506541 0.0 0.23284732 0.0 0.24440597
0.0 0.646027 1.4202018 0.32619047 3.7021682 1.1461073 0.0 0.10192543
0.0 0.0 0.0 1.4648856 0.739261 0.0 0.0 1.1732438
0.10683899 2.1744936 0.0038023016 1.3791848 1.1409227 0.0 1.519737 0.050143566
0.0017929231 2.395911 0.0 0.5212033 0.0 0.5898731 0.9584257 0.13404827
