sample/checkpoints/epoch=34-step=280.ckpt (torch, 908504 bytes, 27 tensors)

layer1.0.weight f4 [8, 8, 3, 3, 3]
0	0xbb6c9313	-0.0036098405
1	0xbc6ca313	-0.014443177
2	0x3cf648ea	0.030064065
3	0x3d6eb601	0.05827904
4	0x3cecd96d	0.02891227
5	0xbd35e31c	-0.04440604
6	0xbc8d76ff	-0.017268656
7	0xbb519eda	-0.0031985552
8	0xbd3e22c8	-0.04641989
9	0xbd3daeca	-0.04630927
10	0xbc9fbb0f	-0.019498376
11	0x3c4b0b6d	0.012392861
12	0xbb4b4b8a	-0.0031020367
13	0xbd39f1cf	-0.045396622
14	0xbc0e2603	-0.008676055
15	0x3d0c54f3	0.0342607
16	0x3d79df25	0.061003823
17	0x3c016e99	0.007899904
18	0x3cee7664	0.029109187
19	0xbcf15cfa	-0.02946328
20	0x3d11eccd	0.03562622
21	0xbbf4dcd3	-0.0074726134
22	0xbd1b7d1e	-0.037961118
23	0xbcd6fb8b	-0.026242992
24	0xbcb72af9	-0.022359358
25	0x3c23e2c9	0.0100028
26	0x3cd7ae37	0.02632819
27	0xbd357239	-0.044298384
28	0x3d6ab4a8	0.057301193
29	0xbd1bd018	-0.03804025
30	0x3d1c8df3	0.03822131
31	0xbcfb0b18	-0.030644938
32	0xbd71873c	-0.05896686
33	0x3d09f05b	0.033676486
34	0x3d769153	0.060197186
35	0x3c099253	0.008396703
36	0x3d2d7e89	0.042357
37	0xbcf39cb2	-0.029737804
38	0xbb49b269	-0.0030776507
39	0xbcefc275	-0.029267529
40	0xbd6e7a2d	-0.058221985
41	0x3d5ea175	0.054353196
42	0x3c41a3eb	0.011818866
43	0x3d061fba	0.0327451
44	0xbd379970	-0.044824064
45	0x3d07baf2	0.03313727
46	0xbb06c32f	-0.0020563116
47	0xbcfd7fe1	-0.030944766
48	0xbcc2b812	-0.023769412
49	0xbbcba4c1	-0.0062147086
50	0x3ca52cd2	0.020162974
51	0xbd0ebbd5	-0.0348471
52	0xbc7e91b0	-0.015537664
53	0x3cfdc075	0.03097556
54	0x3d190ac4	0.037363783
55	0xbd46b493	-0.048512053
56	0x3ceebd5e	0.029143032
57	0xbd0cb0b3	-0.0343482
58	0xbd6a63d6	-0.057224117
59	0x3d3992e5	0.045306105
60	0x3d2e7478	0.042591542
61	0xbcd59102	-0.026070122
62	0xbce3daf0	-0.027814358
63	0xbca17036	-0.019706827
64	0xbab714d3	-0.0013967998
65	0x3cc56009	0.024093645
66	0x3c9b87c4	0.018985637
67	0x3c9a06d2	0.01880208
68	0xbc9a14ff	-0.01880884
69	0xbc5761ca	-0.013145873
70	0x3c6ce71a	0.014459396
71	0xbca820b8	-0.020523414
72	0xbc2ae220	-0.010429889
73	0xbd2d84cd	-0.042362977
74	0xbc9108f8	-0.017704472
75	0x3d1f00c1	0.03881908
76	0xbbf56dcc	-0.0074898954
77	0xbc9298cd	-0.017895127
78	0x3d43b074	0.0477757
79	0xbb65d42e	-0.0035069096
80	0xbd3b7660	-0.045767188
81	0x3d3c40ae	0.04596012
82	0xbd36c433	-0.044620704
83	0x3b0c038b	0.0021364416
84	0xbd5157fa	-0.05110929
85	0xbcf6fba6	-0.030149292
86	0xbcf9907a	-0.0304644
87	0x3cd8e20e	0.026474979
88	0x3d6acfd2	0.0573271
89	0x3c0749a6	0.008257305
90	0x3d56dced	0.052456785
91	0x3c56dfae	0.013114853
92	0x3cbd4014	0.023101844
93	0xbd3f4dda	-0.046705104
94	0xbcde11cc	-0.027108096
95	0x3d63921f	0.055559274
96	0x3cbcaf9a	0.023032952
97	0xbc83aa12	-0.016072307
98	0xbb97b9ce	-0.004630304
99	0x3c3ea96d	0.011637074
100	0x3c6ea4df	0.0145656755
101	0xbc00c1b1	-0.00785868
102	0x3cb14d7f	0.021643398
103	0xbd66f90b	-0.05638985
104	0xbd5819ba	-0.05275891
105	0xbd500c89	-0.050793204
106	0xbcdeb530	-0.027186006
107	0x3c52731f	0.01284483
108	0x3cde1605	0.02711011
109	0x3d132401	0.035923008
110	0x3b8f1786	0.004366818
111	0x3d17e592	0.03708417
112	0xbd111850	-0.035423577
113	0xbd31bc0a	-0.04339222
114	0x3ce43a26	0.027859759
115	0x3d2797ab	0.040916126
116	0x3a7ea0d3	0.0009713296
117	0x3d2bbe2d	0.041929413
118	0xbd197d4b	-0.037473004
119	0xbc45e860	-0.012079328
120	0xbd7b1e8d	-0.061308432
121	0xbc6602e2	-0.014038773
122	0x3d157059	0.036484096
123	0xbcf9c03b	-0.03048717
124	0xbbe0f150	-0.006864704
125	0xbd324553	-0.043523144
126	0x3b6a913b	0.003579213
127	0x3cc958ee	0.024578538
128	0xbcaa6fde	-0.020805296
129	0xbd43a2f2	-0.04776282
130	0xbb1474f9	-0.002265273
131	0xbb9deba0	-0.0048193485
132	0xbd45d443	-0.04829813
133	0x3d4ce2a0	0.050020814
134	0xbc3f009b	-0.011657859
135	0xbd110115	-0.035401423
136	0xbb1a38e6	-0.002353245
137	0x3c84b289	0.016198413
138	0xbd406614	-0.04697235
139	0x3cb68a50	0.02228275
140	0x3cb90597	0.022585673
141	0x3d431ddc	0.047635898
142	0x3cc2ed04	0.023794658
143	0x3b4c9a0e	0.0031219753
144	0x3bbea343	0.005817802
145	0x3c545597	0.012959859
146	0xbb9944ad	-0.0046773762
147	0xbd30badf	-0.043146964
148	0xbc84d3ec	-0.016214333
149	0xbc8c79bd	-0.017147893
150	0xbc31cb25	-0.010851656
151	0x3d6e6662	0.05820311
152	0x3b0d8c6d	0.0021598593
153	0xbd05ddea	-0.032682337
154	0xbcd79130	-0.026314348
155	0x3d801df5	0.06255714
156	0x3d3b68fb	0.045754414
157	0x3aecd380	0.0018068403
158	0x3cacd5a2	0.021097962
159	0x3cf0332f	0.029321281
160	0xbcf6bbc3	-0.030118829
161	0x3ce0ae1c	0.027426772
162	0x3ba62bf8	0.0050711595
163	0x3c18045a	0.009278381
164	0xbd555b6c	-0.05208914
165	0xbd5679ea	-0.05236236
166	0x3d00aa53	0.031412434
167	0xbc310e4f	-0.010806634
168	0xbcc7f508	-0.024408832
169	0x3cf1fe33	0.029540157
170	0x3cb12ee7	0.02162881
171	0xbcd64428	-0.026155546
172	0x3cb10d64	0.02161283
173	0x3d4f48ef	0.050606664
174	0x3c8769ba	0.016529907
175	0x3cd01a1c	0.025403075
176	0xbc974a42	-0.018468026
177	0xbc32ed60	-0.010920852
178	0x3d2acaa5	0.041697163
179	0xbcb17203	-0.02166081
180	0x3d41f3c9	0.047351632
181	0xbcbb67e2	-0.022876684
182	0x3d4d4473	0.050114106
183	0xbd001ed0	-0.031279385
184	0x3d3786f6	0.044806443
185	0xbca2c661	-0.019869985
186	0xbd154a46	-0.036447786
187	0x3c833883	0.016018158
188	0xbcb38053	-0.021911776
189	0xbd49c50f	-0.049260195
190	0xbd63b9da	-0.055597164
191	0x392b484f	0.00016334768
192	0x3d504079	0.050842736
193	0xbc86354e	-0.01638284
194	0xbcb2e436	-0.021837335
195	0xbd575841	-0.0525744
196	0x3d20ba69	0.039240275
197	0x3a3060ba	0.00067282806
198	0x3d1a2a74	0.037638143
199	0xbc243b87	-0.010023958
200	0x3d0b000d	0.033935595
201	0x3cb5ce3c	0.022193067
202	0x3d76f82f	0.06029528
203	0x3d19175d	0.037375797
204	0xbc51a2ba	-0.012795145
205	0x3c41ce95	0.011829038
206	0xbc90178e	-0.017589357
207	0xbac9d4b2	-0.0015398471
208	0x3d470adc	0.04859434
209	0x3d35508f	0.04426628
210	0xbccc53e0	-0.024942338
211	0x3c301a8d	0.010748518
212	0xbd3e4b92	-0.04645879
213	0xbc748ed7	-0.014926634
214	0xbd18edd9	-0.037336204
215	0x3d5c92ac	0.053850815
216	0xbd4dc335	-0.050234992
217	0xbd180e2d	-0.037122894
218	0x3bd29587	0.0064265165
219	0x3ce49a97	0.027905745
220	0xbcfd81e4	-0.030945726
221	0xbacf967e	-0.0015837697
222	0x3cc600f8	0.024170384
223	0x3d7e3c40	0.062069178
224	0x3c90c10b	0.017670175
225	0xbd0e07b3	-0.03467531
226	0x3d36db52	0.044642754
227	0xbc731d05	-0.014838462
228	0x3d2dd67b	0.042440873
229	0xbd20593a	-0.039147593
230	0x3d49c9de	0.04926478
231	0x3d7178eb	0.058953207
232	0x3d0becf8	0.034161538
233	0x3cd1d599	0.025614547
234	0xbcd5c6af	-0.026095716
235	0x3d336f45	0.043807287
236	0xbb867280	-0.004103005
237	0x3c805e54	0.01566998
238	0xbcd85519	-0.026407765
239	0x3ca723eb	0.02040287
240	0x3c8ec310	0.017426997
241	0xbca68561	-0.020327272
242	0xbcea8287	-0.028626693
243	0x3b159cee	0.0022829133
244	0xbd256635	-0.040380675
245	0x3d6639fb	0.05620764
246	0xbb82717f	-0.003980815
247	0x3d3d0115	0.04614361
248	0x3cde7952	0.02715746
249	0xbccb7217	-0.024834676
250	0xbd0e8d8b	-0.034802955
251	0x3d007f6f	0.03137153
252	0x3d1c3cc9	0.038143907
253	0xbd12660b	-0.035741847
254	0x3b345912	0.002751891
255	0x3d3b7c3c	0.045772776

layer1.0.bias f4 [8]
0	0x3d0be7d5	0.03415664
1	0x3da9c2d8	0.082891166
2	0xbd8488d8	-0.064714134
3	0x3d83b10d	0.06430254
4	0xbd829300	-0.06375694
5	0x3d63076c	0.055427
6	0xbca7814b	-0.020447394
7	0x3d228908	0.039681464

layer2.0.weight f4 [16, 8, 3, 3, 3]
0	0xbd8173ea	-0.06320937
1	0xbd202985	-0.039102096
2	0xbd5079e7	-0.050897505
3	0x3ce68670	0.028140277
4	0xbd2e00a8	-0.042481095
5	0x3c32948a	0.010899672
6	0xbd74d0f2	-0.05976958
7	0x3a982bae	0.0011609697
8	0xbcba1dec	-0.022719346
9	0xbd9fc294	-0.07800785
10	0x3bc896c2	0.0061214874
11	0xbcd860e2	-0.026413385
12	0x3cbdd732	0.023173902
13	0x3d42684e	0.047462754
14	0xbcaf66a8	-0.021411255
15	0x3cf1e7e1	0.029529514
16	0xbd8a361b	-0.06748601
17	0xbd598854	-0.05310853
18	0xbd464073	-0.048401307
19	0xbd5e912b	-0.05433766
20	0xbcbc9d5e	-0.023024257
21	0x3ccca572	0.024981234
22	0xbd59bfc5	-0.0531614
23	0xbd67c3a3	-0.056583058
24	0x3ccf389e	0.025295552
25	0x3cd0130c	0.025399707
26	0xbd21beb9	-0.039488528
27	0xbc7b238a	-0.015328297
28	0x3d372161	0.044709567
29	0x3cc9f79b	0.0246542
30	0x3c7f7e3f	0.015594064
31	0x3d0b9cda	0.034085132
32	0x3ba416a9	0.005007584
33	0xbc113c44	-0.008864466
34	0xbc9ac4ac	-0.018892609
35	0xbd89aefe	-0.0672283
36	0x3d14dd44	0.036343828
37	0xbd817cef	-0.06322657
38	0xbd86256f	-0.06550109
39	0x3b884763	0.0041589006
40	0xbd3e3b61	-0.046443347
41	0xbd25475d	-0.04035126
42	0xbd85b1de	-0.06528066
43	0xbd311bc7	-0.04323938
44	0xbd303428	-0.04301849
45	0x3cb039e1	0.021511974
46	0xbd459ec5	-0.048247118
47	0xbd11a9a0	-0.035562158
48	0x3d494f89	0.049148116
49	0xbd703b01	-0.05865002
50	0x3d1a73ca	0.03770808
51	0xbd25498b	-0.04035334
52	0xbd501ea4	-0.05081047
53	0xbccfff30	-0.025390238
54	0xbc8cf726	-0.017207693
55	0xbb3cc5fd	-0.0028804534
56	0x3d63b2ef	0.055590566
57	0x3da932f6	0.08261673
58	0x3d7846df	0.060614463
59	0xbcb89f97	-0.022537036
60	0x3d47d5d2	0.0487879
61	0xbcea8799	-0.028629111
62	0xbd2888f5	-0.041146237
63	0xbd3b3a51	-0.04570991
64	0xbd14c476	-0.036320172
65	0xbc537246	-0.012905663
66	0x3d3f0493	0.04663522
67	0x3da1a0a9	0.078919716
68	0x3b104b26	0.0022017448
69	0xbc29b0cf	-0.010357096
70	0x3d4032fb	0.04692362
71	0x3d1203fe	0.03564834
72	0x3d91a1da	0.07110949
73	0xbd2051da	-0.03914056
74	0x3d83af5c	0.064299315
75	0x3d08a3f1	0.03335947
76	0x3da23dd6	0.079219505
77	0x3d344d5a	0.04401908
78	0x3d68fd00	0.056881905
79	0x3d3d2835	0.046180923
80	0x3d3811c1	0.044938806
81	0xbaceb4bb	-0.0015770415
82	0xbcc1c242	-0.0236522
83	0xbb40ca7e	-0.002941757
84	0xbce576b9	-0.028010713
85	0xbdabdd65	-0.08391837
86	0x3c8b0580	0.016970396
87	0x3d0e7f5f	0.03478944
88	0x3cc8809c	0.024475388
89	0xbcfac737	-0.030612571
90	0x3ce2ec64	0.02770061
91	0x3cde4bd0	0.02713576
92	0xbda01af2	-0.078176394
93	0xbccda07c	-0.025100939
94	0x3d40262e	0.04691141
95	0x3c5ff1e4	0.013668511
96	0xbd417270	-0.047228277
97	0x3d11ad60	0.035565734
98	0xbd7cbb1a	-0.06170187
99	0xb9bbf288	-0.0003584812
100	0x3b5eee0f	0.0034016406
101	0x3b354831	0.0027661438
102	0x3d0ff9c5	0.03515031
103	0xbc885fb3	-0.016647195
104	0xbbf4806c	-0.007461598
105	0xbb0c7d2d	-0.0021436915
106	0xbd4fc54e	-0.050725274
107	0xbd3bf54d	-0.045888234
108	0xbd2df53b	-0.042470198
109	0x3d1e47ab	0.038642567
110	0xbca01f4f	-0.01954618
111	0x3d3928aa	0.045204796
112	0xbbaa8ef1	-0.005205028
113	0x3d441d40	0.047879457
114	0x3d9d5dd9	0.07683916
115	0x3da709f7	0.081561975
116	0x3d24b760	0.040213943
117	0x3d9e8d91	0.077418454
118	0x3d05ad46	0.03263595
119	0x3d17d022	0.037063725
120	0xbd281d04	-0.041043296
121	0x3d0f7567	0.035024073
122	0x3cb02b93	0.021505153
123	0x3d077f74	0.033080533
124	0x3d7b2f7f	0.061324593
125	0x3d399deb	0.045316618
126	0x3d351004	0.044204727
127	0x3d8784d0	0.06617129
128	0x3d7a219c	0.06106721
129	0x3d50d716	0.050986372
130	0xbd461b8b	-0.04836611
131	0x3d9a894c	0.075457186
132	0x3ca86735	0.020557025
133	0xbcbab8e6	-0.022793245
134	0xbd268621	-0.04065526
135	0x3bfc8bf9	0.0077071157
136	0x3cf35901	0.029705526
137	0xbc8c3741	-0.01711619
138	0xbd1c7987	-0.038201835
139	0x3d2da814	0.04239662
140	0xbd9a54bb	-0.07535692
141	0x3d42d2fe	0.0475645
142	0xbd675e82	-0.056486614
143	0xbd1dd9c8	-0.03853777
144	0x3d4af341	0.04954839
145	0xbd8ba0da	-0.068177894
146	0xbcda2e3b	-0.026633373
147	0x3be99643	0.0071285083
148	0x3c3c8cd9	0.01150819
149	0xbceae457	-0.028673334
150	0x3cb50e46	0.022101533
151	0xbd9fb9d6	-0.07799117
152	0xbb8e9831	-0.0043516387
153	0x3c974122	0.018463675
154	0x3cda8c88	0.026678339
155	0xbd76dcf9	-0.06026933
156	0xbcdac6b5	-0.026706079
157	0xbc2acb12	-0.010424392
158	0x3d22ca48	0.03974369
159	0x3d2f1d1b	0.042752367
160	0x3c005148	0.007831879
161	0x3b7ee2bc	0.0038892468
162	0xb9cb625b	-0.00038792458
163	0x3d881c27	0.06645995
164	0xbbee3f6a	-0.007270743
165	0xbc137081	-0.008998991
166	0x3d0e71f4	0.034776643
167	0x3d918ddc	0.07107136
168	0x3d0d0cfe	0.03443622
169	0x3da04db6	0.07827322
170	0x3da66b5d	0.08125947
171	0x3d39f285	0.0453973
172	0x3c9502ea	0.018189866
173	0x3d93fe06	0.072261855
174	0xbbffb09c	-0.007803036
175	0x3d97a3b4	0.07404271
176	0x3ce00578	0.027346358
177	0xbbf06b44	-0.007337006
178	0x3d01b704	0.031668678
179	0xbd390309	-0.04516891
180	0xbd3cf59f	-0.04613268
181	0xbd122371	-0.03567833
182	0x3caade69	0.020858007
183	0x3d369fd3	0.044586014
184	0x3ca91f6f	0.020644872
185	0x3cd4aaaf	0.025960295
186	0xbc974270	-0.018464297
187	0x3c13337d	0.008984444
188	0x3ceea00c	0.02912905
189	0x3d2978dc	0.041375026
190	0xbca36697	-0.01994638
191	0x3c55a2a7	0.013039268
192	0x3d1377ba	0.036002852
193	0x3c3d76fa	0.011564011
194	0xbcaea538	-0.021319017
195	0x3d26ce49	0.040724073
196	0xbda6535b	-0.081213675
197	0x3cbd94cf	0.023142247
198	0xbda4b4e0	-0.08042312
199	0xbd8502c7	-0.0649467
200	0xbcee25c1	-0.029070737
201	0xbd6e5669	-0.058187876
202	0xbd6f50bc	-0.058426604
203	0x3d191edd	0.03738295
204	0xbd3f0b91	-0.04664189
205	0x3b1007a7	0.0021977217
206	0x3d088eb6	0.033339225
207	0xbc8fe031	-0.017562957
208	0xbd8615ef	-0.06547152
209	0xbd844af2	-0.06459607
210	0x3d43a2ca	0.04776267
211	0x3d25f9ea	0.04052154
212	0xbd697646	-0.05699756
213	0x3d01d55e	0.031697623
214	0x3c341f50	0.010993794
215	0xbd2e0c81	-0.042492393
216	0xbb6315ba	-0.0034650401
217	0x3da57d97	0.08080595
218	0x3d344f61	0.044021014
219	0xbd1b3c2e	-0.03789919
220	0x3d6dfc8c	0.058102176
221	0x3d136a39	0.035989974
222	0x3d86479b	0.065566264
223	0xbb91c8ea	-0.0044489997
224	0x3d6153f0	0.05501169
225	0x3d967d00	0.073480606
226	0x3d81ab01	0.063314445
227	0x3d5d8496	0.054081522
228	0xbd167f1b	-0.03674231
229	0xbcbeecd5	-0.02330629
230	0x3d8a9e50	0.06768477
231	0x3d3df51d	0.046376336
232	0x3d829e00	0.06377792
233	0x3d994fc3	0.074859165
234	0xbceb7643	-0.028742915
235	0xbcb97e60	-0.022643268
236	0x3d749173	0.059709024
237	0xbc08bfed	-0.00834654
238	0x3ae54223	0.0017491024
239	0xbd37795d	-0.044793475
240	0xbd039e3c	-0.032133326
241	0xbc4c8ac5	-0.012484257
242	0x3d7fdcc4	0.062466398
243	0xbc720f51	-0.0147741595
244	0x3d73bc74	0.059505895
245	0x3da4d81b	0.08049031
246	0x3c1d9793	0.009618658
247	0x3d2a50cb	0.041580956
248	0x3d45bc6b	0.048275393
249	0xbbc2ba6c	-0.0059426334
250	0x3d6a4d00	0.05720234
251	0x3d942aa1	0.07234693
252	0x3cd865a8	0.026415661
253	0x3d19fc16	0.037593924
254	0xbb946597	-0.004528712
255	0x3d39a1c6	0.045320295

layer2.0.bias f4 [16]
0	0xbc5ca13b	-0.013466175
1	0x3ccbbd4b	0.024870535
2	0x3cbeda42	0.023297433
3	0x3bb36ca6	0.0054755984
4	0x3d7f289c	0.062294587
5	0x3d159c11	0.03652579
6	0x3c90d84e	0.017681267
7	0xbb1a03d6	-0.0023500822
8	0xbdaaf2bc	-0.08347079
9	0xbbf35784	-0.007426204
10	0x3c955a11	0.018231424
11	0x3d4015ab	0.046895664
12	0x3d3a30bc	0.045456633
13	0x3bbf563f	0.0058391388
14	0x3d04d948	0.032433778
15	0xbd9dd67e	-0.07706927

layer3.0.weight f4 [32, 16, 3, 3, 3]
0	0xbcf40768	-0.029788688
1	0x3d55d7e1	0.05220783
2	0xbc47c7d8	-0.012193643
3	0x3caaa6dd	0.02083152
4	0x3c16275c	0.009164657
5	0x3d24c4c4	0.040226713
6	0x3c2eeb21	0.010676176
7	0x3d0f45a1	0.034978513
8	0x3cf62e87	0.030051483
9	0xbc85892d	-0.016300762
10	0xbc5219ce	-0.012823535
11	0xbcbc63c3	-0.022996789
12	0x3d715893	0.05892236
13	0xbce26a8a	-0.027638692
14	0x3b1b1314	0.0023662494
15	0x3d37acc5	0.0448425
16	0x3d00f956	0.031487785
17	0x3d419999	0.047265623
18	0x3a947440	0.0011326149
19	0x3d3820e5	0.044953246
20	0x3bcadd5c	0.006190939
21	0x3cf57f43	0.02996791
22	0x3c2f6aab	0.010706584
23	0x3c0ee0e3	0.008720609
24	0x3d83f48a	0.064431265
25	0x39923983	0.0002789014
26	0x3d58464c	0.052801415
27	0xbd39a5a6	-0.04532399
28	0xba677832	-0.0008829861
29	0xbd47121b	-0.04860125
30	0xbb877b91	-0.0041346033
31	0xbd8295e3	-0.06376245
32	0xbb2764d2	-0.0025542271
33	0x3cbb3aab	0.022855124
34	0xbd3603d7	-0.044437256
35	0xbd2d7129	-0.042344246
36	0xbd1df7d8	-0.03856644
37	0x3bc5fa6a	0.0060418146
38	0xbd1168f3	-0.035500478
39	0xbd425ad9	-0.04744992
40	0xbd330c18	-0.043712705
41	0x3b86fd2d	0.0041195364
42	0xbd116b25	-0.03550257
43	0xbd5a8187	-0.053346183
44	0x3cc4a024	0.024002142
45	0xbcdb1032	-0.026741121
46	0x3bcc6d7d	0.006238638
47	0xbd0bbf26	-0.03411784
48	0xbcbaa506	-0.022783767
49	0x3c8fddb2	0.017561767
50	0x3c15d84d	0.009145808
51	0xbd20581c	-0.039146528
52	0x3c4fb670	0.012677774
53	0x3c3c81cf	0.011505558
54	0xbcbf56f2	-0.023356888
55	0xbd609151	-0.054826085
56	0x3cbc549b	0.022989562
57	0x3cc30638	0.023806676
58	0xbd739605	-0.05946924
59	0xbc8d21ed	-0.017228091
60	0xbcb7554e	-0.022379544
61	0xbd3a79ac	-0.04552619
62	0xbd621bd1	-0.05520231
63	0x3c48eff3	0.01226424
64	0x3cf917ab	0.030406794
65	0x3cdaf612	0.026728664
66	0xbd160510	-0.03662592
67	0xbd1a867b	-0.037725907
68	0x3cfc4a61	0.030797185
69	0xbc33529d	-0.0109449895
70	0xbd654b08	-0.05597976
71	0xbc7b5f55	-0.015342553
72	0xbd57ff71	-0.052733842
73	0xbd19cd78	-0.037549466
74	0xbcb35b97	-0.02189426
75	0xbb07e02d	-0.0020732984
76	0xbd81f05d	-0.06344674
77	0x3c6fb300	0.014630079
78	0xbd81fd3c	-0.06347129
79	0x3c1ec76b	0.0096911
80	0x3beeca15	0.0072872736
81	0x3c5d19cc	0.01349492
82	0x3ca26011	0.019821199
83	0xbccc1f00	-0.024917126
84	0xbd5799e4	-0.052636996
85	0xbbb33812	-0.0054693306
86	0xbc8d661c	-0.017260604
87	0x3caedf6a	0.021346767
88	0xbc85146b	-0.016245088
89	0xbcc06781	-0.023486855
90	0xbd2cb1f0	-0.042161882
91	0xbc62edda	-0.013850654
92	0x3cb6309c	0.022239976
93	0xbd4ba504	-0.049717918
94	0x3cb3c310	0.021943599
95	0x3c3f9c55	0.011694987
96	0xbc12c0ef	-0.008957132
97	0x3bcb5f6c	0.0062064435
98	0xbd30e49c	-0.04318677
99	0xbd67c257	-0.05658182
100	0xbd4538ac	-0.04814975
101	0xbd0575b2	-0.032582946
102	0xbd3ee433	-0.046604346
103	0xbceb9b91	-0.028760703
104	0xbd0626d0	-0.03275186
105	0xbd810971	-0.06300629
106	0x3b105531	0.0022023434
107	0x3b88603b	0.004161862
108	0xbd3c63ca	-0.045993604
109	0xbccf390b	-0.025295755
110	0xbd47b868	-0.048759848
111	0xbd495954	-0.049157456
112	0xbd2f82c4	-0.042849317
113	0xbbf8f9c2	-0.007598133
114	0x3d02cfb9	0.03193638
115	0x3a7354ce	0.0009282351
116	0xbd6f7fa2	-0.05847133
117	0x3ccb06b6	0.024783473
118	0xbd51af8d	-0.05119281
119	0xbd2a58fe	-0.041588776
120	0x3c9c768d	0.019099498
121	0xbd141437	-0.03615209
122	0xbd813c76	-0.0631036
123	0xbd4d9625	-0.050192017
124	0x3cfec060	0.03109759
125	0xbcf826ea	-0.030291993
126	0xbcc666a8	-0.024218872
127	0xbca5feb1	-0.020263048
128	0x3c5bf137	0.013424209
129	0x3c5c8d1d	0.013461378
130	0xbc4ff31a	-0.012692237
131	0xbd2af3bd	-0.041736353
132	0xbd1ef06b	-0.0388035
133	0x3cd9a130	0.026566118
134	0x3cc9836e	0.024598803
135	0xbd26d07d	-0.040726174
136	0x3c7b0e30	0.015323207
137	0xbc58bc7e	-0.013228534
138	0xbd608c6e	-0.054821424
139	0xbd3a4e60	-0.0454849
140	0xbc861337	-0.016366584
141	0xbba958b8	-0.005168047
142	0x3cb765fd	0.022387499
143	0xbd7cd868	-0.06172982
144	0x3c213ea1	0.009841592
145	0xbd73c297	-0.059511747
146	0xbb2026ad	-0.0024437115
147	0x3cf24fc4	0.02957905
148	0xbd719323	-0.05897821
149	0x3c6ae854	0.014337618
150	0x3cfc4a46	0.030797135
151	0xbce0768e	-0.027400281
152	0xbd4008c3	-0.046883356
153	0xba94848d	-0.0011331007
154	0x3c0dc2fd	0.008652446
155	0xbd29739d	-0.041370023
156	0x3cb194a7	0.021677328
157	0xbce8b08f	-0.028404502
158	0x3c64d820	0.013967544
159	0xbd40e490	-0.047092974
160	0xbc217517	-0.009854577
161	0xbd6cdfaf	-0.05783051
162	0x3cf0e1c6	0.029404532
163	0xbaeba8d9	-0.0017979398
164	0xbcd18f24	-0.02558095
165	0xbd47a2e0	-0.048739314
166	0x3ccd9c6f	0.025099007
167	0x3be558dd	0.0069991187
168	0xbd445cbc	-0.04794
169	0xbc94ea84	-0.018178232
170	0xbc58d1c2	-0.013233604
171	0x3c8914fa	0.016733635
172	0xbd3eba48	-0.04656437
173	0xbd82033a	-0.06348272
174	0x3c44478a	0.011979947
175	0x3b779ec6	0.0037783845
176	0x3c17a9f1	0.009256826
177	0xbd691a71	-0.056909982
178	0xbc81f8c2	-0.015865687
179	0xbd7126e1	-0.05887497
180	0xb8d73191	-0.000102612314
181	0x3c2e349d	0.010632661
182	0xbadf8189	-0.0017052154
183	0xbd4bce0f	-0.04975706
184	0x3aa2665c	0.0012390125
185	0xbd63a2c0	-0.055575132
186	0x3ce1aba5	0.027547667
187	0xbcd8a44e	-0.026445534
188	0xbba6544e	-0.005075968
189	0x3c754835	0.014970829
190	0xbbf312af	-0.0074179987
191	0x3ba8af5a	0.0051478567
192	0xbb1ea82c	-0.0024209125
193	0x3d765692	0.060141154
194	0xba467ced	-0.0007571716
195	0x3c9e6680	0.019335985
196	0x392f3351	0.00016708417
197	0x3d1aec60	0.03782308
198	0x3b45524f	0.0030108874
199	0xbcaec290	-0.021333009
200	0x3b8fbceb	0.0043865344
201	0x3d378387	0.04480317
202	0xbbb4870e	-0.005509264
203	0xbc6d6119	-0.014488482
204	0x3d6e9199	0.05824432
205	0xbc87bba0	-0.016568959
206	0x3c9d1d39	0.019178974
207	0xbc375eff	-0.011192082
208	0x3d7bebbf	0.061504122
209	0x3d6c73ae	0.05772751
210	0x3d156307	0.036471393
211	0x3d4e6336	0.050387584
212	0x3c8c19be	0.017102119
213	0x3ccfccbb	0.025366178
214	0x3c8fc997	0.01755218
215	0xbc705876	-0.014669528
216	0x3d12a881	0.03580523
217	0x3c0e257b	0.008675928
218	0x3d71ae94	0.05900438
219	0x3d189c03	0.03725816
220	0x3d2234d1	0.03960115
221	0x3cc0d7a7	0.023540331
222	0xbc0ffc60	-0.008788198
223	0xbca6b2df	-0.020348964
224	0x3cf98b66	0.030461978
225	0x3d30b5aa	0.043142
226	0x3ba6e431	0.0050931205
227	0x3c9a310e	0.01882222
228	0xbce87524	-0.02837617
229	0xbc03d7c7	-0.008047051
230	0x3c7cba79	0.015425318
231	0xbc8a5ab8	-0.016888961
232	0x3d6be381	0.05759001
233	0x3b82253d	0.0039717243
234	0xbbfb7dd6	-0.007674913
235	0xbc0de21f	-0.0086598685
236	0x3d593bc4	0.053035513
237	0x3d241fd9	0.040069435
238	0x3d1f00e5	0.038819212
239	0xbc9a9fcc	-0.018875025
240	0x3c0b0655	0.008485396
241	0x3d0289a1	0.031869534
242	0x3d3917d8	0.045188755
243	0xbccda7a9	-0.02510436
244	0xbbdf624e	-0.0068171388
245	0xbc9caa6a	-0.019124229
246	0xbc308bfc	-0.010775562
247	0x3c1e6437	0.009667448
248	0x3bc142c5	0.005897852
249	0xbce5c2ce	-0.028046992
250	0xbcc30fab	-0.023811182
251	0x3c01f809	0.007932671
252	0x3cef13f8	0.029184327
253	0x3c3a9589	0.011388191
254	0x3be60610	0.0070197657
255	0x3c8beb00	0.01707983

layer3.0.bias f4 [32]
0	0xbd0bd757	-0.03414091
1	0xbd033aa9	-0.032038365
2	0x3d06ca9d	0.03290807
3	0x3d13eaab	0.03611247
4	0x3d1b35c4	0.03789307
5	0x3c90dc60	0.017683208
6	0xbd7a6aa0	-0.06113684
7	0xbc32b69d	-0.010907796
8	0xbc883285	-0.016625652
9	0x3d7f819a	0.062379457
10	0xbd72a90f	-0.059243258
11	0xbb3d5311	-0.0028888623
12	0x3d332cec	0.043744013
13	0xbc90c04c	-0.01766982
14	0xbd7651d8	-0.060136646
15	0x3d1ae39d	0.037814725
16	0x3d6e7801	0.058219913
17	0x3ce8167f	0.02833104
18	0xbd2a0d9a	-0.041516878
19	0xbd153514	-0.036427572
20	0x3d5f5a84	0.05452968
21	0xbd6945c4	-0.0569513
22	0xbcc2646f	-0.023729531
23	0xbc93ed2e	-0.018057432
24	0x3bfb83fb	0.0076756454
25	0x3cf3a109	0.029739873
26	0x3aae901d	0.0013318096
27	0x3bd56687	0.0065124664
28	0xbcd997d1	-0.02656165
29	0x3d75dbde	0.060024135
30	0xbcc66772	-0.024219248
31	0x3d5927e2	0.05301655

layer4.0.weight f4 [64, 32, 3, 3, 3]
0	0xbd3e22aa	-0.046419777
1	0xbb8a5127	-0.0042211
2	0x3c1f3d69	0.009719231
3	0xbc2fd50e	-0.010731949
4	0xbce28863	-0.027652925
5	0xbc017cde	-0.007903306
6	0xbd54bc9b	-0.05193768
7	0x3c6538e9	0.013990619
8	0xbd08c857	-0.033394184
9	0xbd18348b	-0.037159484
10	0xbccf2f6a	-0.025291163
11	0xbd57e8ed	-0.05271237
12	0xbabff458	-0.0014644964
13	0xbd3bc025	-0.04583754
14	0xbd2aaa92	-0.041666575
15	0xbc8e9cbb	-0.01740872
16	0xbc841a3c	-0.01612579
17	0xbd1f1850	-0.038841546
18	0xbca773b9	-0.020440923
19	0x3bc8116b	0.006105592
20	0xbcbec0ca	-0.023285288
21	0xbd1157d6	-0.035484158
22	0xbcf250ee	-0.029579606
23	0x3c1cab66	0.009562349
24	0xbd38cca9	-0.045117054
25	0x3c3a839b	0.011383916
26	0x3afaf33f	0.0019145979
27	0xbc2c4e59	-0.010516726
28	0xbd29dd13	-0.0414706
29	0xbcedcaf1	-0.029027434
30	0xbcaf06fd	-0.021365637
31	0xbd3e618f	-0.046479758
32	0x3b4ccd95	0.0031250466
33	0x3b1c9fab	0.002389888
34	0xbc66266d	-0.014047247
35	0xbd1bb4b4	-0.03801413
36	0xbd0237ec	-0.031791613
37	0xbba2d067	-0.004968691
38	0x399c7543	0.00029842005
39	0xbc22a0ae	-0.009926004
40	0x3b2e02a2	0.0026551862
41	0xbd47592a	-0.048669018
42	0xbae66077	-0.0017576356
43	0xbce7567a	-0.028239477
44	0x3c2442d2	0.010025697
45	0x3c3a1ecd	0.011359883
46	0xbb0c3c39	-0.00213982
47	0xbcc9ac8c	-0.02461841
48	0xbbc4eef6	-0.0060099317
49	0x3c2908b4	0.010317016
50	0xbcfa13f8	-0.0305271
51	0xbd35c317	-0.044375505
52	0xbd0e9e9c	-0.03481923
53	0x3b652d86	0.003496976
54	0xbafa7d45	-0.001911082
55	0xbbda8852	-0.0066690827
56	0xbbefb369	-0.0073150885
57	0xbc003956	-0.00782617
58	0x3b626f47	0.003455119
59	0xbc6a162e	-0.014287515
60	0x3c8e1347	0.017343177
61	0xbc12af10	-0.008952871
62	0x3d389bf2	0.045070596
63	0x3cc9cf1c	0.02463489
64	0x3d1b6556	0.03793844
65	0x3a408c48	0.0007345122
66	0xbc463f6f	-0.012100085
67	0xbb9876b6	-0.0046528233
68	0x3d51e527	0.051243927
69	0xbc6e366a	-0.0145393405
70	0x3c20d89f	0.0098172715
71	0xbc41a764	-0.011819694
72	0x3b3c14cb	0.0028698917
73	0x3cbe5ff8	0.02323912
74	0xba645188	-0.0008709659
75	0x3d0b308f	0.033981856
76	0x3a9dfb50	0.0012053046
77	0x3d0af406	0.033924125
78	0xbc201537	-0.009770683
79	0x3d0156e7	0.031577017
80	0x3abbd6db	0.0014331
81	0xbc8566b1	-0.016284319
82	0x3d14819e	0.036256425
83	0x3d074b61	0.03303087
84	0x3d294b2d	0.04133146
85	0x39038958	0.00012544298
86	0x3cb11394	0.02161578
87	0x3ba6038d	0.0050663413
88	0x3cc1cc81	0.023657085
89	0x3cb54954	0.022129692
90	0xbc485978	-0.012228362
91	0xbba70a15	-0.0050976374
92	0x3bc7d889	0.006098811
93	0x3ca417b2	0.02003083
94	0x3b94789b	0.004530979
95	0x3a240f0f	0.00062583474
96	0xbade004b	-0.0016937343
97	0x3c0faeea	0.00876973
98	0x3cd6b8de	0.026211198
99	0x3c8066ce	0.015674021
100	0x3d3b3efc	0.045714363
101	0x3d416143	0.047211897
102	0xbba932c1	-0.005163521
103	0xbc1db1eb	-0.0096249385
104	0x3c25aeda	0.010112489
105	0x3c3e80ee	0.011627419
106	0xbc41452d	-0.011796278
107	0x3d192de4	0.03739728
108	0x3b139491	0.0022518972
109	0xbbb211a7	-0.005434233
110	0x3cd1260a	0.025530834
111	0x3d3bf4eb	0.04588787
112	0x3cb3a09b	0.021927169
113	0x3d0451f2	0.03230471
114	0x3c299165	0.010349606
115	0x3d2a13ff	0.041522976
116	0x3d598be3	0.053111922
117	0xbbafbf54	-0.0053633843
118	0x3d286d3f	0.04111981
119	0xbc3a418e	-0.0113681685
120	0xbc149691	-0.009069101
121	0x3cd2d20a	0.02573492
122	0x3b51a984	0.0031991908
123	0x3bff1c4d	0.007785356
124	0x3ccf5297	0.025307937
125	0xbabde9da	-0.0014489249
126	0x3c673989	0.014112839
127	0x3c82d6b6	0.015971523
128	0x3bde3e5a	0.006782335
129	0x3bfa599c	0.007640077
130	0xbb06815c	-0.0020523882
131	0xbc46319c	-0.012096789
132	0x3c83cc3c	0.016088597
133	0x3ceaaf78	0.028648123
134	0x3d5cf333	0.05394287
135	0x3b7a5dfc	0.0038202992
136	0xbbcb1828	-0.006197948
137	0x3a57b616	0.0008228732
138	0x3ccb9bdc	0.024854593
139	0x3d343005	0.043991107
140	0x3d148ec4	0.036268964
141	0x3d22c3ac	0.03973739
142	0x3caac3d5	0.020845333
143	0xbc13daba	-0.009024316
144	0x3baed555	0.0053354898
145	0xbbf187bb	-0.0073709167
146	0x3cfa653c	0.03056585
147	0xbc299b18	-0.010351919
148	0x3c76b40e	0.015057577
149	0xbc3293b6	-0.010899475
150	0x3b1c926f	0.0023890992
151	0x3d50a478	0.0509381
152	0x3c968b02	0.018376831
153	0xbc704995	-0.014665981
154	0x3c9162d5	0.017747322
155	0xbc571672	-0.01312791
156	0x3d02179f	0.031760808
157	0x3d320274	0.04345937
158	0x3a6bf473	0.00090009643
159	0x3cc7d98e	0.02439573
160	0x3d37d986	0.04488518
161	0x36767397	3.6724139e-06
162	0xbc8aabb3	-0.016927576
163	0xbd2359b6	-0.039880477
164	0xbd23b2e1	-0.039965514
165	0xbd27ede0	-0.04099834
166	0x3c20cfe8	0.009815194
167	0x3be15427	0.006876487
168	0xbc51ca1c	-0.012804534
169	0xbd023e6a	-0.031797804
170	0x3c44b8b7	0.01200693
171	0xbd11430b	-0.035464328
172	0x3c2ba621	0.01047662
173	0xbd367cf8	-0.044552773
174	0xbd204c1e	-0.03913509
175	0xbd2e0ef5	-0.042494733
176	0x3bdb81b0	0.0066988096
177	0xbaba23c7	-0.0014201336
178	0xbcd59fee	-0.026077237
179	0xbc365d6b	-0.011130671
180	0xbce643ec	-0.02810856
181	0xbc87422c	-0.016511045
182	0x3c28012b	0.010254185
183	0xbc992944	-0.018696435
184	0xbc40fa5b	-0.011778439
185	0x3c4f9553	0.012669879
186	0xbcef4508	-0.029207721
187	0xbcff8092	-0.031189237
188	0xbb73740e	-0.0037148031
189	0xbb2d8221	-0.0026475268
190	0xbc396638	-0.011315875
191	0x3c72e83d	0.014825878
192	0xbb32c618	-0.0027278718
193	0xbcf378d5	-0.029720703
194	0xbd337148	-0.043809205
195	0x3c32f855	0.010923465
196	0xbad9162d	-0.0016562395
197	0xbd23d145	-0.039994497
198	0xbd0f6499	-0.035008047
199	0xbca188e2	-0.019718591
200	0xbd00c7b9	-0.03144047
201	0xbd279411	-0.04091269
202	0xbd4d5796	-0.050132357
203	0x3c4ac6d0	0.012376502
204	0x3a061316	0.00051145384
205	0xbc1a4354	-0.009415466
206	0xbca1160d	-0.019663835
207	0xbd24eaaf	-0.040262874
208	0xbd538b07	-0.05164626
209	0xbc03a2b5	-0.008034398
210	0xbbb72ab4	-0.0055898074
211	0xbd2dfc6d	-0.04247706
212	0xbccd4205	-0.025055895
213	0xbc86c961	-0.016453447
214	0xbd3b1c37	-0.045681205
215	0xbd447b3a	-0.04796908
216	0xbc048434	-0.00808816
217	0xbbbd54f0	-0.0057779476
218	0x3be22cd8	0.0069023184
219	0xbd04d617	-0.032430734
220	0xbc12ca16	-0.008959314
221	0xba80c66b	-0.0009824758
222	0x3c702a4a	0.01465852
223	0xbb6535d9	-0.0034974723
224	0xbd3024e9	-0.04300395
225	0xbd20dbf1	-0.039272252
226	0xbd46485f	-0.048408862
227	0xbcf8cd40	-0.030371308
228	0xbccd6875	-0.025074223
229	0xbd05a3df	-0.032626983
230	0xbbeb6757	-0.00718395
231	0xbce44f41	-0.027869822
232	0xbc730971	-0.014833794
233	0xbc994153	-0.018707907
234	0x3bc10247	0.005890164
235	0xbd19670f	-0.0374518
236	0xbd420417	-0.04736718
237	0xbcbbf0fc	-0.022942059
238	0x3c29cad9	0.010363304
239	0xbce9d81a	-0.028545428
240	0xbcc84a6e	-0.024449553
241	0xbcc35069	-0.023842053
242	0xbd40f47b	-0.047108155
243	0x3d2e8c8f	0.042614516
244	0xbbc481d2	-0.005996921
245	0x3d0998c2	0.033592947
246	0x3ca6ee64	0.020377345
247	0x3bd99b3c	0.00664082
248	0x3c12f621	0.0089698145
249	0x3bba8e8f	0.005693264
250	0x3c99c3d3	0.018770134
251	0xbbb1c4cb	-0.005425071
252	0x3ce11bac	0.027479015
253	0xbc19c977	-0.009386412
254	0x3ca93ca6	0.020658802
255	0x3ca96471	0.020677777

layer4.0.bias f4 [64]
0	0x3cc61c9a	0.02418356
1	0xbd16ae44	-0.036787286
2	0x3d1d26fd	0.03836726
3	0x3bf8b42d	0.007589838
4	0x3cd1c873	0.025608277
5	0xbbfb6463	-0.007671879
6	0x3cd01044	0.025398381
7	0xbc0e4b88	-0.008685
8	0x3d35f0f3	0.04441924
9	0x3c0632ef	0.008190854
10	0xbd05ede2	-0.032697566
11	0x3cc326c1	0.02382219
12	0xbc0794fc	-0.008275267
13	0xbd1d09bd	-0.038339365
14	0xbc8de9ac	-0.017323337
15	0x3be9c49a	0.0071340324
16	0xbc28553a	-0.010274226
17	0x3c5fc089	0.013656744
18	0xbc62b79a	-0.013837719
19	0xbc25a717	-0.010110638
20	0x3c889b58	0.016675636
21	0x3c3544df	0.011063783
22	0x3d4797fe	0.048728935
23	0xbc86ffbd	-0.016479367
24	0x3d34259b	0.043981176
25	0xbd45295a	-0.04813514
26	0xbcee4022	-0.029083315
27	0x3ac25b66	0.0014828264
28	0x3c871d1f	0.016493378
29	0x3d3d9eec	0.046294138
30	0x3ccb39f9	0.024807917
31	0x3d025aa5	0.031824727
32	0xbc77d291	-0.015125887
33	0xbc63adc0	-0.013896406
34	0x3cba8ff1	0.022773715
35	0x3b900af8	0.004395839
36	0xbb97aa18	-0.004628431
37	0x3d3467a3	0.04404415
38	0x3bf9b992	0.0076209987
39	0xbbef181a	-0.0072965743
40	0x3d036c8b	0.032085937
41	0x3d1f2f12	0.03886325
42	0x3aab1155	0.001305143
43	0xbb1d6492	-0.0024016243
44	0x3d3320ae	0.043732338
45	0xba9908cb	-0.0011675594
46	0xbc1c45eb	-0.009538154
47	0x3bbdaa6d	0.0057881386
48	0x3c8f7e29	0.017516213
49	0x3ca5ef51	0.020255717
50	0x3cc9f658	0.024653599
51	0xbcc9e5ba	-0.024645675
52	0xbd160611	-0.03662688
53	0xbca54de5	-0.020178745
54	0xbc18c0a1	-0.00932327
55	0x3ca1c8e3	0.01974911
56	0xbb569309	-0.0032741448
57	0x3c0e1533	0.0086720465
58	0xbb014f30	-0.0019731037
59	0xbd16a926	-0.036782406
60	0xbc44d012	-0.012012498
61	0xbb0e7471	-0.0021736885
62	0x3c7b197d	0.015325901
63	0xbcf992e3	-0.030465549

fc.weight f4 [1, 64]
0	0x3e3497b3	0.17635994
1	0xbe86cf58	-0.26330066
2	0x3e201cb4	0.1563595
3	0xbe2bb0ab	-0.16766612
4	0x3e5aca50	0.21366239
5	0xbe22a6b3	-0.15883903
6	0x3e2f0c68	0.17094576
7	0x3e659418	0.22419775
8	0x3e8ac19a	0.2710083
9	0xbe89fcbd	-0.26950637
10	0xbe68d861	-0.22738792
11	0x3e87ce88	0.26524758
12	0xbe8c1080	-0.27356339
13	0xbe6749ab	-0.22586696
14	0x3e4375a8	0.19087851
15	0x3e515b0d	0.2044489
16	0x3e217c77	0.15770136
17	0xbe4d15a8	-0.20027792
18	0xbe363bf8	-0.17796314
19	0xbe445014	-0.19171172
20	0xbe77afaf	-0.24188112
21	0xbe3e6cb3	-0.18596153
22	0x3e2189b9	0.15775193
23	0x3e295712	0.16537121
24	0x3e710da5	0.23540361
25	0xbe2f50cb	-0.17120664
26	0xbe7fc43b	-0.249772
27	0x3e2e1fd1	0.17004324
28	0x3e40e6bc	0.18838018
29	0x3e211a89	0.15732779
30	0x3e72fb7f	0.2372875
31	0x3e860cc4	0.26181614
32	0xbe42bc7b	-0.19017212
33	0x3e6f4e0f	0.2336962
34	0x3e32ccb6	0.17460904
35	0xbe4dd7d3	-0.20101862
36	0x3e7b3272	0.24530962
37	0x3e6a523f	0.22882937
38	0x3e32bd1d	0.17454953
39	0xbe836a84	-0.25667202
40	0x3e1b1cc2	0.15147689
41	0x3e85f246	0.26161402
42	0xbe7d832f	-0.24757074
43	0xbe306e8c	-0.1722967
44	0x3e5c17ad	0.21493407
45	0x3e79e5ea	0.24404112
46	0xbe454f4e	-0.19268534
47	0xbe1f84ff	-0.15578078
48	0x3e34c49b	0.17653124
49	0x3e3e49a9	0.18582787
50	0x3e82d598	0.25553584
51	0xbe86822e	-0.26271194
52	0xbe24e5d7	-0.16103302
53	0xbe23b774	-0.1598795
54	0xbe3d9577	-0.18514048
55	0x3e35cbcf	0.17753528
56	0x3e548e7a	0.20757475
57	0xbe88490d	-0.26618233
58	0x3e5fb134	0.21844941
59	0xbe31a5bc	-0.17348379
60	0xbe1c8f15	-0.15288956
61	0x3e35a197	0.17737423
62	0xbe577ca2	-0.21043637
63	0xbe433fb5	-0.19067271

exp_avg f4 [8, 8, 3, 3, 3]
0	0x3d022644	0.031774774
1	0xbdaa89b7	-0.08327048
2	0xbd1e2bcf	-0.038615998
3	0x3d5b1fc6	0.0534971
4	0xbe2959ed	-0.1653821
5	0xbe7bb2dd	-0.2457995
6	0x3d7a10c7	0.061051156
7	0xbd84f921	-0.0649283
8	0xbe2b5524	-0.16731697
9	0xbad62dc7	-0.0016340547
10	0xbd58eada	-0.052958347
11	0x3c143ec7	0.00904817
12	0xbc8102c7	-0.015748395
13	0xbe48411f	-0.19556092
14	0xbe233b37	-0.15940557
15	0x3d59823d	0.05310272
16	0x3aeac36d	0.0017911025
17	0xbd940145	-0.07226805
18	0x3d72a282	0.05923701
19	0x3d2fce0b	0.042921107
20	0x3df17a8c	0.11790952
21	0xbca728a9	-0.02040513
22	0xbd816509	-0.06318099
23	0xbb2063a7	-0.002447346
24	0xbd335a3d	-0.04378723
25	0xbb86ac3a	-0.0041098865
26	0x3ce304ce	0.027712252
27	0xbbef5fc4	-0.0073051173
28	0x3cfbafe5	0.030723521
29	0xbd8e84e8	-0.069589436
30	0x3d00311a	0.031296827
31	0x3b76eaf6	0.0037676669
32	0xbd046b55	-0.032328922
33	0xbd45b757	-0.04827055
34	0x3d0dbfb2	0.034606643
35	0x3c2b7e02	0.010467054
36	0x3dbf0922	0.09327914
37	0xbd16eeff	-0.03684902
38	0xbde716e8	-0.11283666
39	0x3d18341e	0.037159078
40	0x3c49f6e6	0.012326932
41	0x3d418cc3	0.04725338
42	0xbd40d578	-0.04707858
43	0x3d14be34	0.036314204
44	0xbc86f147	-0.016472472
45	0x3dc2298f	0.09480583
46	0x3cb358c5	0.021892915
47	0xbdd0d8a6	-0.101975724
48	0x3d03a6f1	0.03214163
49	0x3dbf1e91	0.09332002
50	0x3d33355c	0.04375206
51	0xbd875364	-0.066077024
52	0x3c7f0c36	0.015566876
53	0x3d771343	0.060321104
54	0x3daf814a	0.08569582
55	0xbce41ba5	-0.027845213
56	0x3d2762c9	0.040865693
57	0x3cfb174a	0.030650754
58	0xbd608727	-0.05481639
59	0x3c882277	0.016617997
60	0x3d953945	0.07286314
61	0xbcf7f6a8	-0.030268982
62	0xbd6b982c	-0.05751817
63	0xbd41e27e	-0.04733514
64	0xbc7016a6	-0.014653837
65	0x3de74750	0.11292899
66	0x3b0fbc99	0.0021932481
67	0xbc0f9426	-0.008763349
68	0x3d0a43f4	0.03375621
69	0x3ce35569	0.027750688
70	0x3c845e00	0.016158104
71	0xbcc9f1e5	-0.024651477
72	0xbe113de9	-0.14183773
73	0xbdc25229	-0.09488327
74	0x3dae0cb2	0.08498515
75	0xbd7e77d1	-0.062125985
76	0xbd467257	-0.048448887
77	0x3d5b89c6	0.053598188
78	0x3d398081	0.045288566
79	0x3c651b3f	0.013983547
80	0x3bd127a5	0.0063829
81	0xbd0ed926	-0.034875058
82	0xbd99534f	-0.07486593
83	0x3d347730	0.04405898
84	0xbda46f7e	-0.08029078
85	0xbd97863f	-0.07398652
86	0x3c56c443	0.013108316
87	0x3d9349d7	0.07191818
88	0x3d8c474f	0.068495385
89	0x3d391e04	0.04519464
90	0x3dc27397	0.09494703
91	0x3d7240d9	0.059143875
92	0x3d891c50	0.06694853
93	0xbbe6bc50	-0.0070414916
94	0xbd5c588a	-0.053795375
95	0x3d8681b7	0.0656771
96	0x3d64948f	0.05580574
97	0xbd1a23ec	-0.037631914
98	0xbcc0e98a	-0.02354886
99	0x3e004a7d	0.12528415
100	0x3dd924bb	0.10602709
101	0x3d014367	0.03155842
102	0x3d8449f6	0.064594194
103	0xbd88f8da	-0.0668809
104	0xbd2cae30	-0.042158306
105	0xbcdc932a	-0.026925642
106	0xbd7a523c	-0.06111358
107	0xbd1fa4e1	-0.0389756
108	0x3d51e324	0.05124201
109	0x3c98227e	0.018571135
110	0xbd6fb264	-0.058519736
111	0x3d4d6a19	0.05015001
112	0xbd382a7a	-0.044962384
113	0xbdf8b149	-0.121431895
114	0x3d0122e7	0.031527426
115	0x3d4eca57	0.050485935
116	0xbd4114fd	-0.047139157
117	0x3d6de493	0.058079313
118	0xbcf041a0	-0.029328167
119	0xbd8daceb	-0.06917747
120	0xbdb054a5	-0.08609895
121	0xbc7687bd	-0.015047011
122	0xbc9e6826	-0.019336771
123	0xbd3251cd	-0.043535043
124	0x3cd12e48	0.025534764
125	0xbd3fb15a	-0.046799995
126	0x3c5d2f09	0.013499984
127	0x3d803d91	0.06261743
128	0xbc03fa60	-0.0080552995
129	0xbdcdf711	-0.1005689
130	0x3d0728e3	0.032997977
131	0x3cc7a019	0.024368333
132	0xbd8f4f53	-0.06997552
133	0x3db1ffbc	0.086913556
134	0x3d0e9114	0.034806326
135	0xbda514bc	-0.080605954
136	0xbd15fe5a	-0.03661952
137	0xbc4f77fd	-0.012662885
138	0xbe08998c	-0.13339823
139	0xbd07504c	-0.03303556
140	0x3c3c8772	0.011506902
141	0xbc391680	-0.011296868
142	0x3d3b7a4e	0.045770936
143	0x3d80d5d8	0.062907875
144	0x3d579286	0.05262997
145	0xbb9aeff5	-0.004728312
146	0xbd5a3099	-0.053269003
147	0xbdb7e894	-0.08979908
148	0xbd764325	-0.060122628
149	0xbd140b82	-0.036143787
150	0xbdae0190	-0.08496392
151	0x3d1872e3	0.03721894
152	0x3d6364fc	0.055516228
153	0x3db4075e	0.08790468
154	0x3b99b4e9	0.0046907556
155	0xbca17157	-0.019707365
156	0x3cecac39	0.028890716
157	0xbd065454	-0.032795265
158	0xbcf3a9db	-0.02974408
159	0xbd9473b5	-0.07248632
160	0xbd99450c	-0.07483873
161	0x3c67941b	0.014134432
162	0xbcfad0ec	-0.0306172
163	0xbddf3541	-0.10898829
164	0xbe3de9fc	-0.18546289
165	0xbca5c003	-0.02023316
166	0x3a9f3678	0.001214697
167	0xbddd864e	-0.10816632
168	0xbc56f527	-0.013119972
169	0x3d30bce4	0.04314889
170	0x3d2adf5f	0.04171693
171	0x3ac77550	0.0015217457
172	0x3d61f460	0.055164695
173	0x3d81c514	0.06336418
174	0x3d32ad7d	0.043622483
175	0x3dd458e9	0.10368521
176	0x3d2c3998	0.042047113
177	0xbc4c243d	-0.012459812
178	0x3dc4fa3c	0.09618041
179	0x3d895647	0.06705909
180	0x3d0257fc	0.03182219
181	0x3d8d17a3	0.06889274
182	0x3e23a5ea	0.1598126
183	0xbda1d699	-0.079022594
184	0x3dba6f47	0.09103256
185	0x3dcd144b	0.10013636
186	0xbde6632d	-0.11249385
187	0x3bb60b7a	0.0055555673
188	0x3d492fcd	0.049117852
189	0x3a61dfcf	0.0008616419
190	0xbd854c30	-0.06508672
191	0xbc7dbf19	-0.015487456
192	0x3d9b6ec4	0.07589486
193	0xbd1b94a6	-0.03798356
194	0xbd95a183	-0.073061965
195	0x3b6eaa57	0.0036417448
196	0xbc40d937	-0.011770538
197	0xbd9529e3	-0.0728338
198	0x3d2d4d4a	0.042310037
199	0xbd71f981	-0.059075836
200	0xbd317a41	-0.04332948
201	0x3d225c9d	0.039639104
202	0x3d7a01fc	0.06103705
203	0xbc1a4cc6	-0.009417718
204	0xbc78af36	-0.015178492
205	0xbcd64330	-0.026155084
206	0xbd3e59d4	-0.046472386
207	0x3c49d1d5	0.012318094
208	0x3ccf6998	0.025318906
209	0x3c441d79	0.011969917
210	0xbba7a30a	-0.0051158713
211	0x3d94bd37	0.07262652
212	0x3d01743b	0.031604987
213	0xbd2a4e54	-0.041578606
214	0xbba844ca	-0.0051351534
215	0x3dce3633	0.100689314
216	0xbca5c203	-0.020234114
217	0xbdadcb18	-0.08486003
218	0xbcd3360f	-0.025782613
219	0x3d2be31e	0.041964643
220	0xbe2d0a42	-0.16898444
221	0xbe1e4d8b	-0.15459268
222	0x3da2cdbd	0.07949398
223	0x3ca69ea8	0.020339325
224	0xbdab290f	-0.08357441
225	0xbbd4ad07	-0.006490353
226	0x3d6b0526	0.057377957
227	0xbd19cbed	-0.037547994
228	0x3d908371	0.070563205
229	0xbe2ed2f2	-0.17072657
230	0xbd190a32	-0.03736324
231	0x3dc22477	0.09479611
232	0x3ca840af	0.020538656
233	0xbc9ddc1c	-0.019269995
234	0x3cc17613	0.023615872
235	0x3dd83f4d	0.10558949
236	0x3d501f07	0.05081084
237	0x3c939522	0.018015448
238	0xbd509775	-0.05092569
239	0x3d04c435	0.03241368
240	0xbc5c986b	-0.013464074
241	0xbd0e073d	-0.03467487
242	0xbcae68a4	-0.02129013
243	0x3b9d5044	0.004800828
244	0xbd8ee264	-0.06976774
245	0x3cc814ee	0.024424043
246	0xbc27dfa5	-0.010246192
247	0x3da6411a	0.08117886
248	0x3d10332b	0.035205048
249	0xbd94829d	-0.07251475
250	0xbd42e040	-0.047577143
251	0x3d27996f	0.04091781
252	0x3dc51cd5	0.0962464
253	0xbd669320	-0.056292653
254	0xbd9f8e64	-0.07790831
255	0x3de4b3d5	0.11167113

exp_avg_sq f4 [8, 8, 3, 3, 3]
0	0x4135c261	11.359956
1	0x41f54c0d	30.662134
2	0x41b57458	22.681808
3	0x418a3660	17.27655
4	0x424611b3	49.517284
5	0x426a2aea	58.54191
6	0x41b5b5ff	22.713865
7	0x4221625c	40.346054
8	0x423ac842	46.695564
9	0x416558bc	14.334164
10	0x420468a2	33.10218
11	0x41ba938c	23.322044
12	0x41d1525c	26.165215
13	0x428ffb87	71.991264
14	0x42700a9d	60.010365
15	0x41a78cbb	20.943716
16	0x4225082c	41.25798
17	0x42329830	44.64862
18	0x40a580bc	5.1719646
19	0x418763be	16.923702
20	0x41260695	10.376607
21	0x41845d5a	16.545582
22	0x422da74e	43.413383
23	0x42121ed5	36.53011
24	0x419e5411	19.791048
25	0x42046f2d	33.10857
26	0x41e8b2f8	29.087387
27	0x40fc4ab3	7.8841186
28	0x411188bf	9.095885
29	0x40fc693d	7.8878465
30	0x411c1a05	9.756352
31	0x4124d487	10.301887
32	0x41336e54	11.214436
33	0x40fce25f	7.902633
34	0x4120c0be	10.047056
35	0x4104cc45	8.2998705
36	0x412b7564	10.71616
37	0x41119983	9.099978
38	0x4104ba85	8.295537
39	0x411d4c67	9.831153
40	0x415e32a6	13.887365
41	0x4129b76f	10.607284
42	0x410e2881	8.884889
43	0x41381a8f	11.506484
44	0x414da531	12.85283
45	0x41457b90	12.342667
46	0x4107b9c9	8.482858
47	0x41075516	8.458273
48	0x412269bf	10.150817
49	0x41316b0c	11.0886345
50	0x412826a7	10.509437
51	0x4118bf22	9.546663
52	0x41429591	12.161515
53	0x4129b5be	10.606871
54	0x40cf9190	6.486519
55	0x418a2b17	17.27104
56	0x413e6bc1	11.901307
57	0x408cd518	4.4010124
58	0x40f6f737	7.7176776
59	0x40aaa141	5.3321843
60	0x4126768a	10.40394
61	0x409ae764	4.840746
62	0x40493c33	3.1442993
63	0x414d48c2	12.830263
64	0x41af584f	21.91812
65	0x4175036a	15.3133335
66	0x40d78276	6.7346754
67	0x410e164b	8.880443
68	0x411cd467	9.801856
69	0x411822c7	9.508491
70	0x40ca12cd	6.314795
71	0x409183cf	4.54734
72	0x415dead4	13.869831
73	0x41c5271b	24.644094
74	0x418a0d2d	17.256433
75	0x40ecc837	7.3994403
76	0x411e774a	9.904123
77	0x411eedae	9.933027
78	0x414014ad	12.005048
79	0x40d79fa1	6.738236
80	0x40c30152	6.093911
81	0x413dd532	11.86455
82	0x40dfecd0	6.997658
83	0x40d98682	6.7976694
84	0x40b7bd14	5.741831
85	0x40edd543	7.432283
86	0x40b0f1a7	5.5294986
87	0x40cbeddd	6.372786
88	0x40f73f88	7.7265053
89	0x4094f290	4.6546097
90	0x418f9475	17.947489
91	0x415cfc21	13.811555
92	0x4108ec5f	8.557708
93	0x40ed0505	7.4068627
94	0x40df1127	6.970844
95	0x41056790	8.337784
96	0x40b29246	5.5803556
97	0x408b7937	4.3585467
98	0x4083afbf	4.1152034
99	0x415f85c6	13.97016
100	0x41529a22	13.16263
101	0x40c5d6f7	6.182491
102	0x4137227c	11.445919
103	0x4094a190	4.644722
104	0x406e78f3	3.7261322
105	0x405311e6	3.2979674
106	0x405a6824	3.4126062
107	0x404f9915	3.2437184
108	0x41524ad6	13.1432705
109	0x412ee54b	10.93098
110	0x4094a271	4.6448293
111	0x40d53a3b	6.663358
112	0x40daf3c4	6.8422565
113	0x41061a30	8.381393
114	0x409acfee	4.837882
115	0x40e75022	7.228532
116	0x410bd14d	8.738599
117	0x4185f907	16.746595
118	0x4116795e	9.404631
119	0x40b96579	5.793637
120	0x40e4e360	7.1527557
121	0x41015bcf	8.084914
122	0x40f64fc1	7.6972356
123	0x40d5f08a	6.6856127
124	0x410067ef	8.025374
125	0x4125dccd	10.366406
126	0x41592e96	13.5738735
127	0x416779a3	14.467196
128	0x40ba69af	5.825401
129	0x40eeb8d4	7.460062
130	0x40fc327c	7.8811626
131	0x40d55d74	6.667658
132	0x40b9635a	5.793378
133	0x40e62c0a	7.192876
134	0x40c051e0	6.0099945
135	0x417020bf	15.007995
136	0x4129566d	10.5836
137	0x40beec71	5.9663625
138	0x417f6578	15.962273
139	0x411f8762	9.970552
140	0x40e7523f	7.22879
141	0x411245be	9.142027
142	0x412839da	10.514124
143	0x411c3923	9.763949
144	0x416a092e	14.627241
145	0x415401b5	13.250417
146	0x40dc143b	6.8774695
147	0x41b1c522	22.221256
148	0x4161b491	14.106584
149	0x4111bcde	9.10861
150	0x414c5eac	12.773113
151	0x4114fda7	9.311927
152	0x41056713	8.337665
153	0x414c16e0	12.755585
154	0x415beff2	13.74608
155	0x40923c96	4.5698957
156	0x412c52f3	10.770251
157	0x4125fb80	10.373901
158	0x40b380a4	5.609453
159	0x411bfb4a	9.74885
160	0x41192ea4	9.573887
161	0x40b7cf5f	5.744064
162	0x40d0e3fe	6.527831
163	0x410feefb	8.995845
164	0x40dc8bfd	6.8920884
165	0x40be5af8	5.9486046
166	0x416253a2	14.145418
167	0x411d4354	9.828938
168	0x408ac8ea	4.3370256
169	0x4119cfdd	9.613248
170	0x4132be49	11.171456
171	0x40d670f0	6.7012863
172	0x418b96b2	17.448582
173	0x41a61c35	20.763773
174	0x4138ca10	11.549332
175	0x41ca5273	25.290258
176	0x419fd5a7	19.979322
177	0x40f2ff14	7.5936375
178	0x41b4a023	22.578192
179	0x418b31c2	17.399296
180	0x41661ca9	14.381997
181	0x416f2ba4	14.948154
182	0x41c8b622	25.088932
183	0x412be571	10.743516
184	0x42058efc	33.389633
185	0x41d68d16	26.81889
186	0x4101d021	8.113313
187	0x41d09813	26.074255
188	0x41ab8e56	21.4445
189	0x413f1331	11.942185
190	0x40dba982	6.864442
191	0x40995c5c	4.7925243
192	0x413f5d22	11.9602375
193	0x409dabc0	4.9272156
194	0x4115662c	9.337444
195	0x40927241	4.576447
196	0x407e86e5	3.9769833
197	0x410713df	8.442351
198	0x418a1cb1	17.26401
199	0x40ca5d65	6.3239007
200	0x40838799	4.1103024
201	0x4105ebf4	8.370106
202	0x40710a50	3.7662544
203	0x410c9b66	8.787939
204	0x40860872	4.188531
205	0x40ff567d	7.9793077
206	0x416bdc32	14.741259
207	0x41334798	11.204979
208	0x409661f3	4.6994567
209	0x4023369a	2.5502076
210	0x408c8850	4.3916397
211	0x409132cb	4.5374503
212	0x4140e579	12.056024
213	0x4068f368	3.6398563
214	0x4133619f	11.211333
215	0x40f4fa91	7.6555867
216	0x40c1e4d8	6.059185
217	0x414c5d13	12.772723
218	0x40f83507	7.756473
219	0x40833fdb	4.101545
220	0x41cbb362	25.46259
221	0x41968e6e	18.819546
222	0x40940d27	4.6266055
223	0x4104386c	8.263775
224	0x4161b091	14.105607
225	0x4089be5c	4.304487
226	0x4071c71c	3.7777777
227	0x414a830d	12.656995
228	0x4041b0f4	3.0264254
229	0x420699f3	33.65034
230	0x41569ea9	13.413735
231	0x4072fe16	3.7967582
232	0x415ca124	13.789341
233	0x416ad28e	14.676405
234	0x3fc2d41b	1.522098
235	0x3ff7ec32	1.9368956
236	0x40e30999	7.0949216
237	0x4037adb5	2.8699772
238	0x4185e208	16.735367
239	0x4144ba35	12.295461
240	0x408e4a66	4.446582
241	0x417b2268	15.6959
242	0x41a31bb4	20.388527
243	0x400be402	2.1857915
244	0x4036f570	2.8587303
245	0x405ef0c5	3.4834454
246	0x4027f940	2.624588
247	0x40858fa0	4.1737823
248	0x4029a196	2.6504874
249	0x40634686	3.5511794
250	0x4095c12b	4.67983
251	0x4020590c	2.505435
252	0x409fa203	4.988527
253	0x4035f46c	2.8430433
254	0x4029ea7a	2.6549363
255	0x4092087b	4.563535

exp_avg f4 [8]
0	0xc223777e	-40.86669
1	0xc1f95664	-31.167183
2	0x42063d35	33.559772
3	0xc2045698	-33.084564
4	0x41fbc92c	31.473228
5	0xc203333e	-32.80004
6	0x422e7604	43.61525
7	0xc2033300	-32.799805

exp_avg_sq f4 [8]
0	0x497488aa	1.0016106e+06
1	0x489a00c0	315398.0
2	0x48e817ea	475327.3
3	0x4905f0ac	548618.75
4	0x489a80b0	316421.5
5	0x48d75961	441035.03
6	0x491c9f63	641526.2
7	0x48a31047	333954.22
